saved_models/ResNetPreActBottleneck.ckpt (torch, 154965 bytes, 152 tensors)

model.input_net.0.weight f4 [16, 3, 3, 3]
-0.023633165 0.15059681 0.12532513 0.90683573 0.165128 -0.9510231 0.11590947 0.067623384
-0.46618402 0.6606233 0.023760859 -0.49681315 1.562234 -0.07332969 -1.6739837 0.5932933
0.011256807 -0.68537825 0.34922916 0.03713246 -0.5257621 1.2755017 0.033098713 -1.5300922
0.6554058 0.21870278 -0.5746738 -0.029894138 -0.036642395 -0.26629183 0.18728262 0.49923652
0.25004423 -0.0032546732 0.34691876 0.19475634 -0.18326983 -0.012754564 0.08501887 -0.12032838
0.27258143 0.3589076 0.03582693 0.3428065 0.41845256 0.1933369 0.08219513 0.18658492
0.008488748 -0.1838591 -0.16350411 0.10199976 -0.3710155 -0.4677982 0.71820223 1.1050081
0.23271303 -0.52851605 -0.072851576 0.12534696 -0.401435 -0.85417694 -0.21672918 0.4726795
1.3307736 0.5814366 -0.95541394 -0.1156661 0.21414812 -0.64137334 -0.8654809 -0.29448086
0.18045612 0.60844547 -0.13869531 -0.40136185 0.063436404 -0.09179866 -0.12265971 -0.30565032
-0.2526907 -0.74156976 -0.8666847 -0.6621156 -0.4525156 -0.28360808 0.14314896 -0.123370595
0.27992257 0.750869 0.051207103 0.6641803 0.3252301 0.40083057 1.0434974 0.8167118
-0.19908077 0.5179899 0.42461902 0.81138647 0.10626647 0.05639216 0.491468 -0.9230344
-0.96927905 0.14731988 -1.4612542 -1.5161543 0.14235182 -0.05914032 0.17122562 -0.5438572
0.099567406 0.28197077 0.08264004 0.014519078 -0.47643006 -0.44134173 -0.105430536 0.45191044
-0.9650871 0.37542045 0.9667393 -0.250183 0.25721002 0.18445028 -0.58446187 -0.433545
0.2287076 -1.109933 0.024098134 0.9232023 -0.389073 0.19860914 0.57151306 -0.036644608
0.032787528 0.027221618 -0.025327628 -0.031259537 -0.004339213 0.023386981 -0.041513864 -0.026093122
-0.028466938 0.05008964 0.06267657 -0.040427845 -0.016949765 0.027534032 -0.011292057 -0.055876985
-0.01340264 0.024754595 0.06224712 0.057589546 0.0036757581 0.0053294133 0.025434759 0.013488189
-0.0395396 -0.019442514 -0.63162136 -0.28134575 -0.09191876 -0.00864785 0.339741 0.4599189
0.20143236 0.41202918 0.22489673 0.36163726 0.47454 0.3001669 -0.0007294108 -0.011422807
-0.12906922 -0.4312197 -0.57968426 -0.7976177 0.81381786 0.88586694 0.5696086 0.23937643
0.1549852 -0.10794661 -0.31078842 -0.48777112 -0.7930933 -0.8105352 -1.1739234 -0.6170491
0.12520884 -0.039866544 0.15558691 0.48591143 0.6869486 0.71300215 -0.45049527 -0.94769824
-0.57730365 0.38359767 0.08383905 0.07322153 0.43610203 0.51317215 0.32484084 -0.35776383
-0.87315905 -0.5724255 0.36411864 0.072724864 0.17048186 0.5041093 0.53147775 0.41245762
-0.64954674 -0.018834207 -0.7443841 0.8113739 2.3428912 0.67281866 -0.04359571 1.5210551
-0.15819205 -0.116178475 -0.5970776 0.14531936 -1.2293485 -1.5790732 -0.6253615 -0.5728334
-1.0159663 0.09991501 0.7694564 0.26904303 0.5578323 0.26810107 -0.49428758 0.00026709816
0.4491402 -0.69548255 -0.07586598 0.4633731 -0.4717097 0.5031231 -0.41203403 -1.6566591
-0.67731225 0.44524473 -1.2580962 -0.31191403 0.23349823 -0.22870861 -0.19678216 0.39182493
00000000: 579a c1bc 0d36 1a3e 3b55 003e 6326 683f
00000010: 5017 293e 4076 73bf f261 ed3d 217e 8a3d
00000020: acaf eebe 9c1e 293f 22a6 c23c 4b5e febe
00000030: 49f7 c73f e02d 96bd 1945 d6bf 12e2 173f
00000040: 786e 383c f374 2fbf 2ace b23e 3518 183d
00000050: 5898 06bf a443 a33f 8492 073d 10da c3bf
00000060: adc8 273f 9ff3 5f3e d21d 13bf 8de4 f4bc
00000070: 5616 16bd 6757 88be 04c7 3f3e ee9b ff3e
00000080: cc05 803e 5b4c 55bb 569f b13e 356e 473e
00000090: 16ab 3bbe 85f8 50bc 601e ae3d ba6e f6bd
000000a0: cb8f 8b3e bdc2 b73e 42bf 123d 5584 af3e
000000b0: 6a3f d63e 1cfa 453e ec55 a83d 1e10 3f3e
000000c0: 6414 0b3c 8f45 3cbe 9f6d 27be 40e5 d03d
000000d0: bef5 bdbe 3f83 efbe 1adc 373f e870 8d3f
000000e0: 534c 6e3e d44c 07bf 3533 95bd f45a 003e
000000f0: e388 cdbe 57ab 5abf 41ee 5dbe 0c03 f23e
00000100: ca56 aa3f 07d9 143f 0296 74bf 59e2 ecbd
00000110: a549 5b3e 0b31 24bf 2890 5dbf 32c6 96be
00000120: 7dc9 383e 15c3 1b3f 2506 0ebe 4d7f cdbe
00000130: f2ea 813d f000 bcbd 0435 fbbd 337e 9cbe
00000140: ad60 81be 84d7 3dbf 0cdf 5dbf 6880 29bf
00000150: 20b0 e7be 1435 91be a495 123e b9a9 fcbd
00000160: 0352 8f3e f338 403f 8abe 513d b807 2a3f
00000170: 8f84 a63e aa39 cd3e 5391 853f 0614 513f
00000180: d4db 4bbe fc9a 043f aa67 d93e 06b7 4f3f
00000190: 3ca2 d93d 77fb 663d b2a1 fb3e fc4b 6cbf
000001a0: ac22 78bf 06db 163e 610a bbbf 5811 c2bf
000001b0: adc4 113e 1f3d 72bd c555 2f3e 3a3a 0bbf
000001c0: ffe9 cb3d 795e 903e 2e3f a93d 6de1 6d3c
000001d0: a4ee f3be 8bf7 e1be f7eb d7bd ce60 e73e
000001e0: f30f 77bf 1c37 c03e 3a7c 773f fc17 80be
000001f0: 08b1 833e 89e0 3c3e 4b9f 15bf 9cf9 ddbe
00000200: 5332 6a3e 4912 8ebf 7369 c53c fc56 6c3f
00000210: 9434 c7be 3260 4b3e ae4e 123f a818 16bd
00000220: 374c 063d dfff de3c e37b cfbc 000a 00bd
00000230: f52f 8ebb 0e96 bf3c 710a 2abd 3ec1 d5bc
00000240: 7f33 e9bc cb2a 4d3d 935c 803d ab97 25bd
00000250: 3cda 8abc 0d8f e13c 5202 39bc 44df 64bd
00000260: bf96 5bbc 26ca ca3c d6f6 7e3d 04e3 6b3d
00000270: fde4 703b 5ca2 ae3b 8e5c d03c 91fd 5c3c
00000280: 47f4 21bd e845 9fbc f0b1 21bf 8d0c 90be
00000290: e73f bcbd b6af 0dbc 88f2 ad3e 7d7a eb3e
000002a0: 4944 4e3e 7df5 d23e 544b 663e 8528 b93e
000002b0: e8f6 f23e 7aaf 993e ee35 3fba ba26 3bbc
000002c0: b92a 04be d4c8 dcbe 3066 14bf ac30 4cbf
000002d0: 5e56 503f 2dc8 623f dfd1 113f 181f 753e
000002e0: 71b4 1e3e 1d13 ddbd a91f 9fbe 23bd f9be
000002f0: 2a08 4bbf 3c7f 4fbf 1f43 96bf eef6 1dbf
00000300: bf36 003e 1a4b 23bd 2d52 1f3e 62c9 f83e
00000310: dddb 2f3f 4f87 363f 51a7 e6be 5a9c 72bf
00000320: 2cca 13bf ea66 c43e cfb3 ab3d 2bf5 953d
00000330: c448 df3e 405f 033f 8a51 a63e d22c b7be
00000340: 5a87 5fbf 7a8a 12bf c26d ba3e c6f0 943d
00000350: cc92 2e3e 4f0d 013f ed0e 083f a52d d33e
00000360: b248 26bf 324a 9abc f58f 3ebf 33b6 4f3f
00000370: eef1 1540 d83d 2c3f 6a91 32bd efb1 c23f
00000380: 19fd 21be fbee edbd 14da 18bf 99ce 143e
00000390: 4b5b 9dbf 121f cabf b117 20bf 36a5 12bf
000003a0: 2f0b 82bf 3ea0 cc3d 18fb 443f 02c0 893e
000003b0: 19ce 0e3f 8b44 893e 4313 fdbe 4f09 8c39
000003c0: b4f5 e53e 250b 32bf 9f5f 9bbd 3d3f ed3e
000003d0: ef83 f1be adcc 003f 20f6 d2be 680d d4bf
000003e0: 5664 2dbf 1ef7 e33e 4c09 a1bf 32b3 9fbe
000003f0: 291a 6f3e 9732 6abe 4381 49be 479d c83e

model.input_net.1.weight f4 [16]
1.200094 0.96178067 1.043193 0.97855586 0.8433191 0.0031987564 0.6475416 1.0636812
1.3547902 1.2903633 0.022356812 -0.0012842219 -0.42534027 -0.0006339932 1.1821223 0.54336244
00000000: ae9c 993f 4237 763f 5987 853f a382 7a3f
00000010: c3e3 573f 3aa2 513b 49c5 253f b526 883f
00000020: c469 ad3f a02a a53f a225 b73c 5653 a8ba
00000030: 33c6 d9be 9032 26ba c94f 973f cd19 0b3f

model.input_net.1.bias f4 [16]
0.88404435 -0.033254463 1.0621419 1.709837 0.5808492 -0.04448902 0.78043705 1.039277
1.3877867 1.8021504 0.45493668 -0.020370552 2.0667112 -0.0347878 0.38645077 0.21872088
00000000: bb50 623f d535 08bd 44f4 873f f0db da3f
00000010: 88b2 143f 1e3a 36bd b9ca 473f 0707 853f
00000020: ffa2 b13f ddac e63f 76ed e83e 25e0 a6bc
00000030: ff44 0440 a77d 0ebd e0dc c53e 5ef8 5f3e

model.input_net.1.running_mean f4 [16]
0.0033046273 0.00047114288 0.036355793 0.005163553 -0.005476618 -0.00024829872 0.031293772 -0.037959002
0.07045538 -0.05573345 -0.035717394 -0.0010798037 -0.01455067 -0.0012185044 -0.005225541 -0.003251352
00000000: 7292 583b ba03 f739 d0e9 143d 0633 a93b
00000010: 3475 b3bb 172e 82b9 e62d 003d e67a 1bbd
00000020: e94a 903d c248 64bd 674c 12bd 3388 8dba
00000030: ef65 6ebc 39b6 9fba 043b abbb a314 55bb

model.input_net.1.running_var f4 [16]
10.476376 2.6876554 7.3192096 2.4300444 3.6364596 0.023181407 2.5494373 9.408818
3.2525213 5.1255097 9.363505 0.011471021 1.3330781 0.013964533 1.2507925 3.2745645
00000000: 3c9f 2741 8c02 2c40 f736 ea40 d985 1b40
00000010: c1bb 6840 efe6 bd3c fb29 2340 858a 1641
00000020: 4f29 5040 2d04 a440 ebd0 1541 f3f0 3b3c
00000030: 4ea2 aa3f 7fcb 643c f819 a03f 7792 5140

model.blocks.0.net.0.weight f4 [16]
0.14672326 0.0050332155 -0.22316915 0.19875272 0.03348566 0.032621495 0.207898 -0.24617553
0.28542084 0.4289697 -0.07674818 -0.004874559 0.3106822 0.02356677 0.0043059657 0.16330695
00000000: 9f3e 163e aced a43b 7486 64be d585 4b3e
00000010: 4228 093d 1e9e 053d 37e3 543e 7015 7cbe
00000020: ae22 923e eba1 db3e 262e 9dbd c4ba 9fbb
00000030: bd11 9f3e 190f c13c 0f19 8d3b f039 273e

model.blocks.0.net.0.bias f4 [16]
0.15994999 -0.03527233 0.86723435 0.1744064 0.3203834 -0.009665492 -0.041831944 0.8668684
-0.020134753 -0.18863271 0.6369476 0.008944742 1.5737531 -0.0100066 -0.030634623 0.16517197
00000000: eec9 233e b879 10bd 1203 5e3f 9797 323e
00000010: 4b09 a43e 035c 1ebc f957 2bbd 16eb 5d3f
00000020: a3f1 a4bc ef28 41be ff0e 233f f88c 123c
00000030: be70 c93f b9f2 23bc 76f5 fabc d722 293e

model.blocks.0.net.0.running_mean f4 [16]
1.0319921 0.37795958 1.155115 1.7256095 0.6907393 6e-45 0.81647277 1.1359328
1.4783806 1.8656638 0.45494115 6e-45 2.066818 6e-45 0.7015386 0.3176882
00000000: 5118 843f eb83 c13e cfda 933f c6e0 dc3f
00000010: 4ad4 303f 0400 0000 5c04 513f 3f66 913f
00000020: 933b bd3f 12ce ee3f 0cee e83e 0400 0000
00000030: bf46 0440 0400 0000 0998 333f 07a8 a23e

model.blocks.0.net.0.running_var f4 [16]
0.8636097 0.30584878 0.7227962 0.8829804 0.41783217 6e-45 0.33325556 0.7709142
1.4008695 1.3181577 0.00049452554 6e-45 0.18060136 6e-45 0.6411042 0.14966272
00000000: 8615 5d3f 3698 9c3e 2c09 393f 010b 623f
00000010: 19ee d53e 0400 0000 79a0 aa3e a25a 453f
00000020: b14f b33f 64b9 a83f 0ca3 013a 0400 0000
00000030: 90ef 383e 0400 0000 681f 243f 2f41 193e

model.blocks.0.net.2.weight f4 [4, 16, 1, 1]
0.13576913 0.018449668 0.389095 0.0738037 -0.050643377 0.011626023 0.16194801 0.106315084
-0.05207019 -0.16330148 0.021547742 0.038268503 -0.6872255 0.018739374 0.010836887 -0.19472022
0.08728546 -0.016320616 0.26050434 -0.18813798 -0.30392843 0.025395859 0.040164072 -0.3887287
-0.098464034 -0.211956 -0.5444872 -0.0012432074 -0.46237648 -0.010555657 0.006272224 0.14982
0.21627674 -0.026995061 0.12032836 0.17348391 0.025978904 0.030760007 0.116145074 0.18245298
0.2404271 0.26091203 0.024400657 -0.0073932563 1.2245762 0.005988696 0.036079243 -0.12628652
0.18569478 -0.0014733485 -0.70966357 -0.16129673 -0.0020823823 -0.0064120577 0.16363128 0.79636043
-0.132106 -0.16643219 -0.06897376 0.0057866126 -0.470798 0.027510826 0.0021638935 -0.037689697
00000000: 1007 0b3e c223 973c 7637 c73e 6526 973d
00000010: 6e6f 4fbd 137b 3e3c b3d5 253e b9bb d93d
00000020: 8d47 55bd 8138 27be e484 b03c 6fbf 1c3d
00000030: 03ee 2fbf 5183 993c 338d 313c bd64 47be
00000040: b8c2 b23d d0b2 85bc d360 853e 3ea7 40be
00000050: 829c 9bbe fa0a d03c 1583 243d 7307 c7be
00000060: 83a7 c9bd fe0a 59be 8363 0bbf 1ef3 a2ba
00000070: 9cbc ecbe a2f1 2cbc 3a87 cd3b 6a6a 193e
00000080: a677 5d3e bf24 ddbc b76e f63d c4a5 313e
00000090: b6d1 d43c 69fc fb3c 78dd ed3d f4d4 3a3e
000000a0: 8632 763e 4396 853e e3e3 c73c 2143 f2bb
000000b0: eabe 9c3f d33c c43b d4c7 133d 4151 01be
000000c0: c626 3e3e 5f1d c1ba 83ac 35bf f82a 25be
000000d0: 9478 08bb 3d1c d2bb f58e 273e 47de 4b3f
000000e0: cc46 07be 336d 2abe 1d42 8dbd a09d bd3b
000000f0: 6f0c f1be 625e e13c 1cd0 0d3b 8360 1abd

model.blocks.0.net.3.weight f4 [4]
0.5386223 0.22962007 0.48593104 0.56600994
00000000: 27e3 093f 8621 6b3e f4cb f83e 07e6 103f

model.blocks.0.net.3.bias f4 [4]
0.42234325 0.7638852 1.7363814 0.8098794
00000000: 603d d83e fb8d 433f bf41 de3f 4254 4f3f

model.blocks.0.net.3.running_mean f4 [4]
-0.6591401 -1.3067942 2.3152773 -0.73489416
00000000: 68bd 28bf 0845 a7bf 812d 1440 0622 3cbf

model.blocks.0.net.3.running_var f4 [4]
0.04438257 0.037883688 0.15240791 0.13949557
00000000: 7fca 353d ed2b 1b3d d210 1c3e edd7 0e3e

model.blocks.0.net.5.weight f4 [4, 4, 3, 3]
-0.12005341 0.071127884 -0.016317343 0.5598727 -0.6461804 -0.11373167 -0.062362563 -0.041847084
0.12415712 -0.08321726 -0.2775558 0.24198392 0.2620833 0.12680076 -0.31577247 -0.13813283
-0.0029621213 0.101482205 0.07240766 -0.128317 0.1383903 -1.9587023 1.9193416 -0.15597261
0.09496238 -0.05131789 -0.0145563865 -0.13860327 0.09374034 0.062038403 0.19708498 -0.04886173
-0.1790748 -0.17694212 0.10628509 -0.008950198 0.22870323 -0.3485035 -0.33391607 0.10886019
-0.09024431 -0.33866563 -0.3540081 0.108874805 0.39514452 -0.06817713 0.14120165 -0.4147222
0.050176617 0.19241142 -0.39076844 0.013214922 -0.3626903 0.60918516 -0.8086065 0.14783402
0.16999367 0.12553236 -0.10958197 0.010870715 0.93695694 -0.0006754192 -0.6175769 -0.023071315
0.32021135 -0.35209015 -0.69996977 0.23130137 -0.010268242 -0.23437685 -0.3111262 0.8159991
0.10231016 0.65900654 0.066263154 -0.17874065 -0.8401035 -0.118695624 0.17731799 0.17279628
0.0026674038 0.08857701 0.55732375 0.6447844 0.005265045 -0.7707192 -0.88052285 -0.16680612
0.07761048 0.1578261 0.051790956 -0.6894105 0.25954032 0.40653795 1.5190828 -0.2646252
-0.2315309 -1.09693 0.044087656 0.12664866 -0.30464572 0.15978555 -0.423242 -1.0773317
-0.50828147 0.11731596 1.1738827 0.7429628 -0.3502331 0.056925293 0.16335735 -0.39433503
-0.05047366 0.40284497 0.20598023 -0.15588199 -0.13697179 -0.16719522 -0.18696393 0.34440732
-0.16279908 -0.20623282 0.16617212 0.0772871 0.49536484 -0.39865357 0.651449 -0.25754577
-0.6898449 -0.29054555 0.31074652 0.046867266 -0.49965915 0.027585289 0.3147647 -0.021092994
-0.298251 0.27071396 0.7588363 -0.36133006 -0.7534436 0.40070403 0.50497067 -0.645331
00000000: 90de f5bd 7fab 913d f3ab 85bc d153 0f3f
00000010: 146c 25bf 26ec e8bd e36f 7fbd d967 2bbd
00000020: 1746 fe3d d06d aabd cb1b 8ebe a2ca 773e
00000030: c82f 863e 0fd8 013e eeac a1be b172 0dbe
00000040: 2620 42bb e7d5 cf3d 784a 943d 8865 03be
00000050: 30b6 0d3e c2b6 fabf fcac f53f 49b7 1fbe
00000060: a37b c23d b532 52bd e97d 6ebc 04ee 0dbe
00000070: effa bf3d fb1b 7e3d a5d0 493e 3d23 48bd
00000080: 625f 37be 5130 35be ffab d93d daa3 12bc
00000090: 2e31 6a3e 0d6f b2be 0cf7 aabe 17f2 de3d
000000a0: 02d2 b8bd 9565 adbe 8d40 b5be c1f9 de3d
000000b0: 6250 ca3e 73a0 8bbd 2a97 103e 7856 d4be
000000c0: ff85 4d3d 8007 453e cd12 c8be 6683 583c
000000d0: 8bb2 b9be 8ff3 1b3f d600 4fbf cd61 173e
000000e0: d212 2e3e 8e8b 003e 836c e0bd 151b 323c
000000f0: 69dc 6f3f 9e0e 31ba 8519 1ebf 0e00 bdbc
00000100: bef2 a33e 2945 b4be 3831 33bf 44da 6c3e
00000110: 213c 28bc 7c00 70be ef4b 9fbe 51e5 503f
00000120: fd87 d13d a7b4 283f fab4 873d ca07 37be
00000130: 0611 57bf b116 f3bd d992 353e 82f1 303e
00000140: 9ccf 2e3b dd67 b53d c5ac 0e3f 9710 253f
00000150: 6686 ac3b da4d 45bf f269 61bf 39cf 2abe
00000160: 3ef2 9e3d 2a9d 213e c122 543d 357d 30bf
00000170: 78e2 843e be25 d03e 4e71 c23f f47c 87be
00000180: 7016 6dbe 3468 8cbf 4295 343d 30b0 013e
00000190: 86fa 9bbe d39e 233e 2db3 d8be 01e6 89bf
000001a0: bc1e 02bf 5a43 f03d ca41 963f cf32 3e3f
000001b0: c151 b3be 7f2a 693d 2647 273e 48e6 c9be
000001c0: 78bd 4ebd b241 ce3e 7bec 523e 879f 1fbe
000001d0: 5542 0cbe 3935 2bbe 7973 3fbe 2856 b03e
000001e0: cdb4 26be b22e 53be 0629 2a3e b348 9e3d
000001f0: 76a0 fd3e 521c ccbe 5dc5 263f 0add 83be
00000200: ad99 30bf 63c2 94be 2b1a 9f3e e4f7 3f3d
00000210: 53d3 ffbe 8bfa e13c d728 a13e 37cb acbc
00000220: 5bb4 98be 059b 8a3e 1943 423f 4100 b9be
00000230: aee1 40bf 1429 cd3e c245 013f 6a34 25bf

model.blocks.0.net.6.weight f4 [4]
0.39208272 0.36504525 0.66183656 0.36313534
00000000: 11bf c83e 36e7 ba3e 1f6e 293f e0ec b93e

model.blocks.0.net.6.bias f4 [4]
0.98232466 0.3949312 1.2767556 0.38979924
00000000: a179 7b3f 6c34 ca3e ba6c a33f c493 c73e

model.blocks.0.net.6.running_mean f4 [4]
-0.30644777 -0.9065169 -0.21975897 -0.9016745
00000000: b9e6 9cbe 7e11 68bf 7f08 61be 24d4 66bf

model.blocks.0.net.6.running_var f4 [4]
1.6991379 1.1970692 2.8743773 1.1059376
00000000: 5a7d d93f 9039 993f ccf5 3740 5d8f 8d3f

model.blocks.0.net.8.weight f4 [16, 4, 1, 1]
-0.1916278 -0.03988394 -0.06317863 0.043337777 0.11213212 -0.0629805 0.008980379 0.005954866
0.0047780704 0.015570658 -0.009387787 -0.09378096 0.036874082 0.049017552 0.004856684 0.050445575
-0.59823185 0.020673672 -0.05038359 0.34872484 0.1608018 -0.13300087 1.8005114 0.45438245
0.008754211 -0.11187513 -0.11634671 -0.11323705 -0.041166313 0.103865296 -0.37689462 -0.025766162
-0.12552613 0.14988177 -0.08514908 0.08347935 -0.0352496 0.1733927 -0.07299447 0.18124373
0.1309634 0.069919445 2.5740817 -0.15011041 -1.2208234 -0.005249358 -0.012322848 -0.02053903
1.0055679 -0.17890914 -0.17277567 -0.10909726 -0.20042104 1.3707305 -0.12808837 -1.1783894
-0.08018357 -0.071521066 0.103713535 0.27492166 0.48078838 -0.04132588 -0.06822943 0.13330866
00000000: 143a 44be 585d 23bd cc63 81bd f482 313d
00000010: 86a5 e53d ecfb 80bd 7122 133c 0921 c33b
00000020: 5c91 9c3b 131c 7f3c 3ccf 19bc 3b10 c0bd
00000030: 4709 173d a1c6 483d d124 9f3b 05a0 4e3d
00000040: b925 19bf d55b a93c 065f 4ebd 108c b23e
00000050: 3aa9 243e 6131 08be 2877 e63f d1a4 e83e
00000060: d26d 0f3c ca1e e5bd 2f47 eebd d4e8 e7bd
00000070: 029e 28bd 54b7 d43d 55f8 c0be 8f13 d3bc
00000080: ec89 00be 9b7a 193e a462 aebd 39f7 aa3d
00000090: e261 10bd db8d 313e 207e 95bd f597 393e
000000a0: 451b 063e ed31 8f3d c1bd 2440 8bb6 19be
000000b0: f143 9cbf ce02 acbb c5e5 49bc 7841 a8bc
000000c0: 73b6 803f f533 37be 1bec 30be 626e dfbd
000000d0: 2c3b 4dbe 1974 af3f 9929 03be 77d5 96bf
000000e0: 4937 a4bd a379 92bd c367 d43d 88c2 8c3e
000000f0: e529 f63e 5345 29bd dfbb 8bbd 1182 083e

model.blocks.1.net.0.weight f4 [16]
0.7971216 0.003441263 0.2469194 0.033592876 0.37031284 0.13078211 0.11242086 0.10153448
0.04136273 0.0011665525 0.27119854 1.0802062 0.80467683 0.08550242 0.33564115 0.64201653
00000000: 2910 4c3f d086 613b 70d8 7c3e af98 093d
00000010: a599 bd3e bfeb 053e e83c e63d 4ff1 cf3d
00000020: f76b 293d 02e7 983a 89da 8a3e 3244 8a3f
00000030: 4dff 4d3f e51b af3d 28d9 ab3e 325b 243f

model.blocks.1.net.0.bias f4 [16]
0.91733253 -0.027247297 -0.16515315 -0.040398084 0.6507344 0.05434668 0.14873908 -0.1649692
-0.06122334 -0.010643771 -0.17377087 0.24951252 0.23971596 0.13472271 -0.10342921 0.6577318
00000000: 4ed6 6a3f b935 dfbc e81d 29be 7678 25bd
00000010: 8896 263f a09a 5e3d 0f4f 183e b0ed 28be
00000020: 53c5 7abd 3663 2ebc fef0 31be 3680 7f3e
00000030: 1a78 753e c0f4 093e b2d2 d3bd 1c61 283f

model.blocks.1.net.0.running_mean f4 [16]
0.7626278 0.4760911 1.1151521 1.8106071 0.18960232 2.6314929 0.57920176 0.6386559
1.3416961 1.8855247 3.8939338 -1.2310988 2.7134292 -0.27801058 0.84212977 0.7415254
00000000: 933b 433f 36c2 f33e 4ebd 8e3f f9c1 e73f
00000010: 1c27 423e 616a 2840 9146 143f f47e 233f
00000020: b3bc ab3f e058 f13f 3636 7940 a594 9dbf
00000030: d3a8 2d40 6757 8ebe d195 573f 9cd4 3d3f

model.blocks.1.net.0.running_var f4 [16]
0.90048814 0.31317982 0.7275242 0.8806569 0.37036413 1.2513024 0.33337915 0.79422563
1.4093285 1.3277799 2.379833 0.21218105 0.4387548 0.50556916 0.61806816 0.20926175
00000000: 6486 663f 1b59 a03e 073f 3a3f bb72 613f
00000010: 5ea0 bd3e ad2a a03f acb0 aa3e 5f52 4b3f
00000020: e064 b43f b1f4 a93f 2f4f 1840 fd45 593e
00000030: 78a4 e03e fb6c 013f b739 1e3f b648 563e

model.blocks.1.net.2.weight f4 [4, 16, 1, 1]
0.5664652 -0.045637734 -0.03786667 0.013881322 -0.7595551 -0.06434501 -0.18496056 -0.08429613
-0.03520783 -0.016107466 -0.32524276 -0.020583041 -0.21702714 -0.15334648 0.14964575 -0.80679274
-0.44048575 -0.0086890375 0.18787637 -0.06881336 -0.030447615 0.20695595 -0.004525579 0.031636532
-0.022601139 -0.0067908657 -0.15372401 -0.74529856 0.66654843 -0.22016987 -0.10406698 0.6541988
-0.50358385 -0.012808142 -0.5707477 -0.041306723 0.08625036 0.061745975 -0.14508137 -0.0037311444
0.17065993 -0.016664855 -0.057598345 -0.8778913 0.35016215 0.07620491 0.30807388 -0.044652417
-1.2081223 0.014348619 -0.09734067 0.013620981 0.311079 -0.14387177 -0.040449724 -0.13690515
0.08380686 0.010331883 -0.17108037 -0.14637882 -0.46775374 -0.16931611 0.05915276 0.3131099
00000000: dd03 113f a2ee 3abd 151a 1bbd 7c6e 633c
00000010: 3472 42bf 51c7 83bd 4d66 3dbe 73a3 acbd
00000020: 1636 10bd cef3 83bc 3886 a6be c49d a8bc
00000030: 5d3c 5ebe dc06 1dbe bc3c 193e f889 4ebf
00000040: 5987 e1be 775c 0ebc aa62 403e 05ee 8cbd
00000050: 476d f9bc 43ec 533e 4f4b 94bb 4f95 013d
00000060: 0626 b9bc e985 debb d469 1dbe e3cb 3ebf
00000070: eba2 2a3f 3674 61be 1221 d5bd 9379 273f
00000080: dfea 00bf 3ed9 51bc 851c 12bf 3d31 29bd
00000090: 07a4 b03d 59e9 7c3d 3690 14be 3786 74bb
000000a0: 7ac1 2e3e bc84 88bc 3eec 6bbd 7cbd 60bf
000000b0: 7448 b33e 5211 9c3d dcbb 9d3e 74e5 36bd
000000c0: c0a3 9abf 7816 6b3c 8c5a c7bd 892a 5f3c
000000d0: bf45 9f3e 1f53 13be 9cae 25bd dd30 0cbe
000000e0: eea2 ab3d 0f47 293c b12f 2fbe 54e4 15be
000000f0: 6b7d efbe 3461 2dbe 2a4a 723d f14f a03e

model.blocks.1.net.3.weight f4 [4]
0.9154527 0.78939414 1.0072882 0.73713887
00000000: 1c5b 6a3f bc15 4a3f d2ee 803f 22b5 3c3f

model.blocks.1.net.3.bias f4 [4]
-0.14098562 1.5933541 0.12326548 -0.15968758
00000000: 895e 10be 07f3 cb3f 9d72 fc3d 2485 23be

model.blocks.1.net.3.running_mean f4 [4]
-0.6645137 -0.124114744 -0.74600166 -1.0090897
00000000: 921d 2abf df2f febd f7f9 3ebf da29 81bf

model.blocks.1.net.3.running_var f4 [4]
1.2331085 1.371525 0.7486745 1.3980933
00000000: 80d6 9d3f 228e af3f 22a9 3f3f b9f4 b23f

model.blocks.1.net.5.weight f4 [4, 4, 3, 3]
0.35032558 0.06132379 -0.09938112 0.06545461 0.11525732 0.04518833 0.3204493 -0.07100494
-0.12071629 -0.05801292 -0.36000547 0.53228897 -0.16333862 -0.24787882 1.6245996 0.055084694
-0.39825982 0.41028184 0.014699092 -0.107189484 0.005210049 -0.52999496 -0.41710457 1.0739045
-0.15303257 -0.112759896 0.30023134 -0.1542624 0.063573234 0.30458307 0.27919313 -0.29500002
-0.20037845 -0.09903689 0.056030188 0.117172964 0.32985747 0.12187979 -0.060268033 -0.019337993
0.023760712 0.0073810453 -0.0073462776 -0.13913883 0.2550896 -0.6466893 0.6729137 0.46812534
-0.09748522 0.21046332 -0.12789024 0.5957996 -0.61924326 -0.5550532 0.14679743 0.4505302
0.4177191 -0.026442915 0.17982022 0.14722368 -0.22769469 -0.5737136 -0.36233374 -0.24900202
-0.36677745 -0.049106147 0.24135703 0.1551634 -0.09473831 0.29087093 0.49309507 0.15654989
-0.042678162 -0.030215798 -0.118860394 -0.15073813 0.14196895 -0.20794953 0.13193154 0.25173542
-0.018007426 0.11038698 -0.113813914 0.08055545 -0.60174465 0.16974804 0.096774764 -0.28939316
1.1135199 -0.6611823 0.08742212 -0.12383635 -0.15288168 -0.13874455 -0.26690724 -0.009063609
-0.24863549 0.37522313 -0.12643184 -0.11852882 -0.023890616 -0.0021650328 -0.031674303 0.107407175
-0.21169303 0.06485085 0.14291073 -0.1997245 -0.5312447 0.06113198 -0.11460413 -0.8125634
-0.22786832 -0.42417186 -0.67474216 -0.47256452 -0.5430408 -0.25966892 0.14640085 0.03488039
-0.3420616 -0.15714504 0.27482727 -0.13330418 0.03347991 -0.03814077 0.2318796 0.15624298
-0.009132533 0.004302903 -0.17887436 -0.11314165 0.038191527 -0.16089636 -0.2893368 -0.26990184
-0.47313586 -0.3894159 -0.2046192 -0.5128298 -0.3391178 -0.41714394 -0.409237 -0.25952232
00000000: e05d b33e a82e 7b3d 5488 cbbd 110d 863d
00000010: 080c ec3d 6617 393d ee11 a43e 0a6b 91bd
00000020: 1a3a f7bd f59e 6dbd a352 b8be 1744 083f
00000030: 3d42 27be f2d3 7dbe e1f2 cf3f 7da0 613d
00000040: b6e8 cbbe 7610 d23e 76d4 703c 2986 dbbd
00000050: 0fb9 aa3b c0ad 07bf bb8e d5be b475 893f
00000060: 92b4 1cbe a9ee e6bd ecb7 993e f6f6 1dbe
00000070: af32 823d 50f2 9b3e 67f2 8e3e 3e0a 97be
00000080: 0230 4dbe dad3 cabd e97f 653d 61f8 ef3d
00000090: 14e3 a83e 1d9c f93d 9ddb 76bd b66a 9ebc
000000a0: d3a5 c23c b2dc f13b 0bb9 f0bb 697a 0ebe
000000b0: 1b9b 823e 6e8d 25bf 1244 2c3f 20ae ef3e
000000c0: 55a6 c7bd b283 573e a9f5 02be 5386 183f
000000d0: ba86 1ebf f717 0ebf 1152 163e e5ab e63e
000000e0: 47df d53e d09e d8bc cb22 383e cec1 163e
000000f0: cc28 69be e5de 12bf cf83 b9be 63fa 7ebe
00000100: 41ca bbbe 8723 49bd 4c26 773e 28e3 1e3e
00000110: 2906 c2bd 09ed 943e f576 fc3e 9d4e 203e
00000120: 4ccf 2ebd 1f87 f7bc 146d f3bd 195b 1abe
00000130: 4f60 113e b9f0 54be 1019 073e 77e3 803e
00000140: 4f84 93bc 9212 e23d 4517 e9bd 41fa a43d
00000150: f00b 1abf 6ed2 2d3e d931 c63d 572b 94be
00000160: d287 8e3f 3e43 29bf 5e0a b33d ea9d fdbd
00000170: 048d 1cbe 0d13 0ebe 11a8 88be 887f 14bc
00000180: 4d9a 7ebe 3f1d c03e 5977 01be 3dbf f2bd
00000190: 41b6 c3bc 39e3 0dbb eabc 01bd 4bf8 db3d
000001a0: 0fc6 58be 86d0 843d 3157 123e 9484 4cbe
000001b0: a7ff 07bf 8765 7a3d 92b5 eabd 2804 50bf
000001c0: 5056 69be 0e2d d9be e7bb 2cbf faf3 f1be
000001d0: b904 0bbf 53f3 84be 1bea 153e bdde 0e3d
000001e0: b322 afbe a1ea 20be 29b6 8c3e e480 08be
000001f0: 3b22 093d 7f39 1cbd d971 6d3e 29fe 1f3e
00000200: 9fa0 15bc 5eff 8c3b d72a 37be cfb6 e7bd
00000210: b86e 1c3d 04c2 24be f423 94be 9330 8abe
00000220: dd3e f2be 8561 c7be b287 51be d048 03bf
00000230: d9a0 adbe e493 d5be 8387 d1be 1ce0 84be

model.blocks.1.net.6.weight f4 [4]
0.63859373 0.3043499 0.7182961 0.59084636
00000000: e17a 233f c0d3 9b3e 41e2 373f b541 173f

model.blocks.1.net.6.bias f4 [4]
0.92888516 0.63905746 -0.018212324 0.3641229
00000000: 6bcb 6d3f 4599 233f 0332 95bc 516e ba3e

model.blocks.1.net.6.running_mean f4 [4]
2.198672 0.1470687 -0.3803226 -2.2254174
00000000: 0bb7 0c40 2d99 163e a5b9 c2be 3d6d 0ec0

model.blocks.1.net.6.running_var f4 [4]
6.1146736 1.3400639 1.4438307 1.2159476
00000000: 68ab c340 3787 ab3f 72cf b83f 2ca4 9b3f

model.blocks.1.net.8.weight f4 [16, 4, 1, 1]
0.57408357 0.44931453 0.043759245 -0.91537005 -0.089809135 0.008577618 -0.0025398969 -0.13605659
0.028866848 0.013807407 -0.121249504 0.060140826 -0.019244147 0.012081708 -0.08051147 0.040865853
0.43303126 -0.0066947765 -0.10100145 -0.7431659 0.007954978 -0.2545112 -0.050217316 0.013053405
0.08024768 -0.11031497 0.03838653 0.0056805206 -0.070122324 0.009696206 0.023679579 0.15906584
-0.0018780234 -0.030288065 -0.06964795 0.013634046 -0.022930698 0.0067420895 -0.031433474 -0.09402928
0.20236297 0.18227437 0.05824731 -0.0056604035 1.0323048 -0.2443201 -0.97908527 -0.71696246
-0.50746524 0.18398231 0.3577694 0.010475588 -0.13892622 1.245483 -0.035628907 0.07814396
0.07156365 0.18910521 0.25466797 -0.31077456 -1.6060675 0.030077484 -1.038762 -0.85734797
00000000: 24f7 123f 8e0c e63e e53c 333d b155 6abf
00000010: daed b7bd 2389 0c3c 6674 26bb 6b52 0bbe
00000020: 2b7a ec3c 7638 623c a951 f8bd 3a56 763d
00000030: e7a5 9dbc 5bf2 453c 33e3 a4bd f462 273d
00000040: 46b6 dd3e db5f dbbb d9d9 cebd 1f40 3ebf
00000050: 9955 023c 4b4f 82be acb0 4dbd f3dd 553c
00000060: e558 a43d d1ec e1bd 323b 1d3d a923 ba3b
00000070: 4b9c 8fbd d6dc 1e3c adfb c13c 28e2 223e
00000080: 0228 f6ba ad1e f8bc 96a3 8ebd 5561 5f3c
00000090: 29d9 bbbc bfec dc3b 63c0 00bd 6c92 c0bd
000000a0: 3d38 4f3e 22a6 3a3e bb94 6e3d e87a b9bb
000000b0: 9022 843f 0c2f 7abe 55a5 7abf da8a 37bf
000000c0: 3ee9 01bf dc65 3c3e 8d2d b73e cda1 2b3c
000000d0: ad42 0ebe fd6b 9f3f 9eef 11bd f109 a03d
000000e0: f78f 923d cca4 413e d763 823e d81d 9fbe
000000f0: 9f93 cdbf 0e65 f63c 27f6 84bf 287b 5bbf

model.blocks.2.net.0.weight f4 [16]
0.3428136 0.6089586 0.0030406944 0.7929346 0.002072045 0.26377827 0.3334173 0.28662714
0.7602789 0.64774644 0.18581069 0.00180717 0.026772704 0.010174801 0.24762157 0.3275045
00000000: 4485 af3e b6e4 1b3f 6346 473b c3fd 4a3f
00000010: 26cb 073b f20d 873e acb5 aa3e cbc0 923e
00000020: a3a1 423f b6d2 253f 2845 3e3e 90de ec3a
00000030: 6e52 db3c 35b4 263c 8290 7d3e abae a73e

model.blocks.2.net.0.bias f4 [16]
0.03707442 -0.14654246 -0.022527544 -0.8785009 -0.014465747 -0.059761047 0.23954482 -0.05366981
0.42828572 1.1233946 0.0023099107 -0.005455613 0.070249535 -0.023675205 -0.1223834 -0.06580686
00000000: 59db 173d 3a0f 16be af8b b8bc 6fe5 60bf
00000010: be01 6dbc 00c8 74bd 3d4b 753e e0d4 5bbd
00000020: 4448 db3e 65cb 8f3f df61 173b 00c5 b2bb
00000030: fdde 8f3d 81f2 c1bc 26a4 fabd bfc5 86bd

model.blocks.2.net.0.running_mean f4 [16]
1.1748052 0.33050013 1.1524681 1.8005693 0.2226172 2.4704866 0.596841 0.65892714
1.3106948 1.816107 4.214994 -0.96774745 2.4337168 0.41908804 0.94299424 -1.4226153
00000000: 0460 963f 5037 a93e 1384 933f 0e79 e63f
00000010: c3f5 633e 741c 1e40 92ca 183f 73af 283f
00000020: d9c4 a73f 3276 e83f 3be1 8640 4cbe 77bf
00000030: 04c2 1b40 b592 d63e 1268 713f 4218 b6bf

model.blocks.2.net.0.running_var f4 [16]
1.1430361 0.31760725 0.7285565 0.8816013 0.67999166 1.2722385 0.3341121 0.7931098
1.4090656 1.3256152 2.3204405 1.416803 0.8877521 0.96779424 0.65554976 1.0412824
00000000: 024f 923f 6b9d a23e ae82 3a3f 9fb0 613f
00000010: ef13 2e3f b6d8 a23f be10 ab3e 3e09 4b3f
00000020: 435c b43f c2ad a93f 1982 1440 cd59 b53f
00000030: b943 633f 5dc1 773f 1cd2 273f be48 853f

model.blocks.2.net.2.weight f4 [4, 16, 1, 1]
0.19822776 0.5519033 0.0073290607 0.68826675 0.011492963 -0.13380024 -0.17201582 0.008527314
0.93201005 -0.7851798 0.002198792 -0.0019653374 -0.07410408 -0.01020083 0.15307307 0.045413654
0.50988936 -0.1466958 -0.0108721405 0.27370086 -0.0023094758 0.17618442 0.3008242 -0.09172868
0.036936738 0.4476139 0.06684539 -0.0042242557 0.2242379 -0.022602793 -0.08046257 0.35575092
-0.2736216 0.25413525 -0.031745818 -0.112826176 0.011211175 -0.09372831 0.17079541 -0.33024624
-0.055989876 0.8866044 -0.12918346 -0.0045709596 -0.11997493 0.0013722351 -0.15754321 -0.24175377
-0.12726851 0.44536677 0.005420507 0.60107803 -0.005233474 0.2951728 0.38426018 -0.025295932
0.42811278 0.30365986 0.22039106 0.023163509 0.190192 -0.016176034 0.0015732059 -0.14343071
00000000: 38fc 4a3e 8949 0d3f 9e28 f03b 4032 303f
00000010: fb4c 3c3c ee02 09be ea24 30be 26b6 0b3c
00000020: 3698 6e3f 8b01 49bf 9c19 103b e4cc 00bb
00000030: e1c3 97bd 6221 27bc 30bf 1c3e ab03 3a3d
00000040: 1c88 023f 6c37 16be 1021 32bc 8522 8c3e
00000050: 935a 17bb b069 343e a105 9a3e 3fdc bbbd
00000060: fa4a 173d a62d e53e 3ce6 883d a06b 8abb
00000070: 9f9e 653e 7e29 b9bc 8fc9 a4bd fc24 b63e
00000080: 2118 8cbe 041e 823e e707 02bd 6911 e7bd
00000090: 13af 373c a1f4 bfbd fee4 2e3e 0916 a9be
000000a0: a455 65bd 82f8 623f ab48 04be fdc7 95bb
000000b0: 6bb5 f5bd 92dc b33a 0253 21be 4d8e 77be
000000c0: ad52 02be 1d07 e43e 829e b13b 40e0 193f
000000d0: 907d abbb e420 973e c0bd c43e 6a39 cfbc
000000e0: 9931 db3e 4e79 9b3e 32ae 613e 66c1 bd3c
000000f0: b1c1 423e 9a83 84bc 0834 ce3a 80df 12be

model.blocks.2.net.3.weight f4 [4]
1.009151 0.49789935 0.84095466 0.604913
00000000: dc2b 813f aaec fe3e ce48 573f 94db 1a3f

model.blocks.2.net.3.bias f4 [4]
0.6251843 0.1680941 0.3623243 -0.31860182
00000000: 140c 203f dc20 2c3e 9282 b93e c71f a3be

model.blocks.2.net.3.running_mean f4 [4]
-0.25042197 0.7182425 0.93629056 0.8164898
00000000: 4f37 80be bede 373f bdb0 6f3f 7a05 513f

model.blocks.2.net.3.running_var f4 [4]
0.9435576 0.1138242 0.3392213 0.09555842
00000000: fe8c 713f aa1c e93d 6aae ad3e 22b4 c33d

model.blocks.2.net.5.weight f4 [4, 4, 3, 3]
-0.11598771 0.79057264 0.5337164 -0.79196167 -0.20824577 0.57613784 -0.2133736 -0.8577163
0.15943405 -0.2334483 -0.417253 -0.2147649 0.21461844 -0.1397313 -0.20584999 0.25779647
0.1292358 -0.21302156 -0.24420401 -0.7879296 -0.45391464 0.7535006 -0.023820736 -0.36691672
1.0516478 0.54889774 -0.21450244 -0.45231014 -0.021247983 0.17558496 -0.11325349 0.03318367
0.3757829 0.050938215 -0.15918061 -0.024831057 -0.9209357 -0.8989229 -0.30374074 -0.20629007
-0.21716502 -0.16848525 1.0546811 1.0811241 0.5253402 0.3461376 0.30179942 0.020983536
0.017858844 -0.06856086 -0.008949182 -0.24665822 -0.13776366 0.03209158 0.3428722 0.3149353
-0.12836508 0.07050906 0.13283713 0.091757715 -0.4061901 -0.3425756 -0.17755474 -0.0875899
-0.1587407 -0.0771751 0.10422232 0.12933038 0.0021400605 -0.125572 0.033405405 -0.2223948
-0.59996796 -0.5375084 0.8709421 -0.92705923 -0.11085089 1.1946523 -0.31342998 0.19498312
0.25566447 0.14679673 -0.28139225 -0.2772623 0.19029067 -0.41075218 -0.35876298 0.15943584
-0.19695309 -0.19994807 0.64570385 0.1450868 -0.5526285 0.70003897 0.09232239 -0.53792775
0.46828276 -0.08072856 -0.41824833 -0.22207595 -0.22025268 0.019492272 -0.3255925 -0.12563013
0.111906804 -0.21597765 -0.021380289 0.073578574 0.11386613 0.4257786 -0.4608198 0.32437047
0.7511084 0.063013695 -0.26118994 0.12351895 -0.2791429 -0.08587152 0.024613751 -0.035893828
-0.05023648 0.06263944 -0.055466175 0.03782471 0.11127143 0.027293451 0.08925327 0.13922536
0.25344473 0.020606462 0.09809417 0.2279118 0.01053081 0.113024525 0.26829052 0.00036095924
0.21112806 -0.020764772 0.23280394 0.4260207 0.26172882 0.12158717 0.31165263 0.23094904
00000000: f78a edbd f862 4a3f a3a1 083f 00be 4abf
00000010: 613e 55be c57d 133f 9c7e 5abe 4c93 5bbf
00000020: ae42 233e 120d 6fbe 2fa2 d5be 54eb 5bbe
00000030: f0c4 5b3e b915 0fbe 57ca 52be e6fd 833e
00000040: 6456 043e 5322 5abe 9e10 7abe c1b5 49bf
00000050: 8067 e8be 6ae5 403f b423 c3bc 82dc bbbe
00000060: 659c 863f 9084 0c3f 87a6 5bbe 3295 e7be
00000070: 4010 aebc 8bcc 333e 72f1 e7bd 9aeb 073d
00000080: 9e66 c03e 97a4 503d 3e00 23be 806a cbbc
00000090: 71c2 6bbf d01f 66bf e883 9bbe b43d 53be
000000a0: 8260 5ebe 6687 2cbe caff 863f 4662 8a3f
000000b0: b27c 063f f338 b13e 7485 9a3e aae5 ab3c
000000c0: b64c 923c a369 8cbd 979f 12bc f993 7cbe
000000d0: eb11 0dbe 7672 033d f28c af3e 333f a13e
000000e0: 2372 03be 0e67 903d 7506 083e 78eb bb3d
000000f0: 26f8 cfbe 1266 afbe e9d0 35be 5562 b3bd
00000100: ec8c 22be fb0d 9ebd 8372 d53d 2f6f 043e
00000110: 4240 0c3b f295 00be 1bd4 083d 76bb 63be
00000120: 8097 19bf 279a 09bf 10f6 5e3f c153 6dbf
00000130: cb05 e3bd 5eea 983f e579 a0be a8a9 473e
00000140: 74e6 823e e251 163e a512 90be 53f5 8dbe
00000150: 8fdb 423e 1c4e d2be c8af b7be 2643 233e
00000160: 12ae 49be 30bf 4cbe d94c 253f a291 143e
00000170: 1079 0dbf c135 333f 8513 bd3d a2b5 09bf
00000180: c2c2 ef3e 0455 a5bd a524 d6be e167 63be
00000190: eb89 61be 42ae 9f3c 0fb4 a6be 2fa5 00be
000001a0: 652f e53d 3f29 5dbe b725 afbc 5db0 963d
000001b0: a532 e93d a7ff d93e 93f0 ebbe e313 a63e
000001c0: a448 403f 530d 813d b0ba 85be 81f7 fc3d
000001d0: d1eb 8ebe 68dd afbd c7a2 c93c 6805 13bd
000001e0: c4c4 4dbd 1b49 803d 8030 63bd 15ee 1a3d
000001f0: 47e2 e33d 8496 df3c 6bca b63d 1891 0e3e
00000200: 82c3 813e e2ce a83c 99e5 c83d b661 693e
00000210: 6b89 2c3c 6779 e73d 605d 893e 213f bd39
00000220: f431 583e e21a aabc 2864 6e3e 631f da3e
00000230: 5201 863e b202 f93d ef90 9f3e e87d 6c3e

model.blocks.2.net.6.weight f4 [4]
0.95850414 0.7006274 1.0919155 0.5684094
00000000: 8760 753f 515c 333f e3c3 8b3f 4783 113f

model.blocks.2.net.6.bias f4 [4]
0.013738819 -0.007200435 -0.30513495 -0.17959923
00000000: c918 613c a0f1 ebbb a63a 9cbe dce8 37be

model.blocks.2.net.6.running_mean f4 [4]
-0.23055768 -0.062093593 -0.19213925 1.4393431
00000000: 5017 6cbe da55 7ebd 27c0 44be 653c b83f

model.blocks.2.net.6.running_var f4 [4]
1.6210412 1.8659202 1.8395371 1.3075676
00000000: 477e cf3f 79d6 ee3f f475 eb3f 605e a73f

model.blocks.2.net.8.weight f4 [16, 4, 1, 1]
0.23484997 0.1054348 0.81561005 0.061037906 0.21621247 0.3781334 0.55316323 1.028586
1.0213344 0.40881258 -0.3566809 0.07278572 -0.35262805 0.073502645 0.0058232914 -0.5157511
-0.27256256 0.26410738 0.97414404 -0.12141067 0.16898651 0.14980216 -0.12668616 -0.06347231
-0.90742767 0.7384861 0.61537266 0.075894356 0.6317233 0.85788393 -0.5141981 -0.08093698
0.005832135 0.24029262 0.44021922 -1.170018 -0.5548688 -0.08618208 0.16907144 -1.0349973
-0.12173436 -0.10600122 0.15803051 0.042253252 0.13171914 0.17613275 -0.45766497 0.058560383
-0.27787626 -0.040304102 -0.22113019 0.05978506 0.098791495 0.08491042 -0.08905425 -0.024418937
-0.12691526 0.033816516 0.2573082 0.26044452 0.23644799 0.15682507 -0.0026370492 0.043517344
00000000: 837c 703e 33ee d73d d2cb 503f e202 7a3d
00000010: cd66 5d3e b39a c13e 1b9c 0d3f b5a8 833f
00000020: 16bb 823f e24f d13e e19e b6be ae10 953d
00000030: aa8b b4be 8e88 963d 4fd1 be3b 4408 04bf
00000040: 528d 8bbe 1539 873e 8161 793f 28a6 f8bd
00000050: cd0a 2d3e bd65 193e 04ba 01be c5fd 81bd
00000060: 2e4d 68bf 6d0d 3d3f 1089 1d3f 806e 9b3d
00000070: 9eb8 213f 489e 5b3f 7da2 03bf 4ac2 a5bd
00000080: 7f1b bf3b 450f 763e 6a64 e13e 26c3 95bf
00000090: e20b 0ebf 3b80 b0bd 1021 2d3e cb7a 84bf
000000a0: dd4f f9bd 2b17 d9bd c0d2 213e bf11 2d3d
000000b0: 62e1 063e 255c 343e 1053 eabe 03dd 6f3d
000000c0: cc45 8ebe ea15 25bd f46f 62be 2ee1 743d
000000d0: 3253 ca3d 84e5 ad3d 1362 b6bd 390a c8bc
000000e0: 13f6 01be 3083 0a3d e6bd 833e fc58 853e
000000f0: 6c1f 723e c096 203e 58d2 2cbb 3e3f 323d

model.blocks.3.net.0.weight f4 [16]
0.30082676 0.0019380589 0.5574637 0.2758009 0.30601284 1.1651826 0.3331611 0.6307775
0.00056880084 0.28626862 0.9178612 0.9083766 0.68411416 0.7701529 -0.00068940775 0.7983527
00000000: f705 9a3e 7706 fe3a f1b5 0e3f c735 8d3e
00000010: b7ad 9c3e b424 953f 1794 aa3e a27a 213f
00000020: 941b 153a cd91 923e f4f8 6a3f 5e8b 683f
00000030: 1b22 2f3f be28 453f 5fb9 34ba d860 4c3f

model.blocks.3.net.0.bias f4 [16]
0.23265113 -0.029880688 -0.107849374 -0.35989323 0.34204286 0.0040641455 0.0049410365 -0.00459393
-0.0056209858 -0.22894011 1.5418605 0.7954037 0.79883283 2.0135624 -0.01676984 0.73761755
00000000: 193c 6e3e 58c8 f4bc 22e0 dcbd ed43 b8be
00000010: 3e20 af3e 862c 853b 6be8 a13b ae88 96bb
00000020: 3f30 b8bb 476f 6abe af5b c53f 949f 4b3f
00000030: 4f80 4c3f 35de 0040 e760 89bc 81d4 3c3f

model.blocks.3.net.0.running_mean f4 [16]
1.4389973 0.71757996 1.5009508 1.6376635 0.36472133 2.5221546 0.5879126 0.9240949
1.2967682 1.5209731 4.190714 -0.97197187 2.3012495 0.44719884 0.9932793 -1.3100941
00000000: 1031 b83f 52b3 373f 281f c03f f59e d13f
00000010: c1bc ba3e fb6a 2140 7181 163f 7c91 6c3f
00000020: 80fc a53f 3faf c23f 541a 8640 26d3 78bf
00000030: ac47 1340 3ff7 e43e 8d47 7e3f 2ab1 a7bf

model.blocks.3.net.0.running_var f4 [16]
1.4690824 0.73717004 1.0329409 1.0519313 0.9984755 1.2902064 0.86123097 1.0062977
1.3673395 1.5171531 2.3152382 1.4882923 0.93706375 0.97019947 0.65697014 1.0574961
00000000: e40a bc3f 2db7 3c3f 6837 843f afa5 863f
00000010: 179c 7f3f 7c25 a53f a279 5c3f 5dce 803f
00000020: fb04 af3f 1332 c23f dd2c 1440 5d80 be3f
00000030: 69e3 6f3f fe5e 783f 322f 283f 085c 873f

model.blocks.3.net.2.weight f4 [8, 16, 1, 1]
0.19463278 -0.011478098 0.026301144 -0.13146505 0.380017 -0.22805996 0.06414215 -0.013000564
0.007587641 -0.18899643 0.2133004 0.928538 -0.9827189 -0.3058362 -0.058342516 -1.3374392
0.2392552 0.010504284 -0.3183857 0.10121025 0.21496244 -0.344186 0.10678006 -0.27854532
-0.004022294 -0.15125364 -0.9718955 0.13535403 -0.48188663 1.3075328 -0.03605463 -0.25755027
-0.045552883 0.0051925755 0.2705063 -0.15197858 0.2381558 0.97277397 0.03865827 0.43819997
0.014767595 -0.30156308 -0.07695992 0.48415118 -0.09869472 -0.096230306 -0.05371879 0.17077166
-0.15587594 0.00058668776 -0.32137364 -0.09918464 -0.1757997 -0.4314615 0.06578191 -0.10296828
0.009500861 -0.18505222 0.9300352 -0.62769395 0.34411424 1.3146088 -0.025117412 0.7310529
0.1630584 -0.0033955735 0.08034122 -0.19649561 -0.25197685 -0.024740845 0.014747943 -0.13018426
0.00023800274 -0.116424136 0.11520704 -0.98063856 0.38418004 -1.2951763 0.15493555 0.89330363
0.35556832 0.011612103 -0.3454139 0.18019071 0.45332265 -0.3109337 0.34105596 -0.30639753
-0.008411095 -0.045229252 -1.402236 -0.01184541 -0.30681697 -0.9102637 0.22779477 -0.25438863
0.5790892 0.0003674677 -0.55487615 -0.23480125 0.6639747 -1.2709811 -0.4133457 -0.917131
0.025557715 -0.073878266 0.38692123 -0.104251266 -0.06502971 -0.16258512 0.029602347 0.3359773
-0.3427845 0.035996374 0.31600684 -0.11155448 -0.53733706 0.15791737 0.06912031 0.0018666263
-0.028176978 0.012493541 -0.6752718 -0.9005928 0.4893608 0.21931195 -0.0033303788 0.34934288
00000000: d14d 473e a20e 3cbc 7f75 d73c c69e 06be
00000010: 9791 c23e 8d88 69be f65c 833d 5100 55bc
00000020: bfa1 f83b 4888 41be 6c6b 5a3e abb4 6d3f
00000030: 7793 7bbf 9096 9cbe 90f8 6ebd 3531 abbf
00000040: 51ff 743e 291a 2c3c 7303 a3be 5247 cf3d
00000050: 1d1f 5c3e 2639 b0be 81af da3d 7e9d 8ebe
00000060: 73cd 83bb 3ce2 1abe 25ce 78bf 3f9a 0a3e
00000070: d8b9 f6be 3c5d a73f 05ae 13bd a1dd 83be
00000080: a995 3abd 7b26 aa3b cd7f 8a3e 46a0 1bbe
00000090: 1ddf 733e b707 793f 2258 1e3d bf5b e03e
000000a0: c8f3 713c 7a66 9abe 2a9d 9dbd aae2 f73e
000000b0: 7520 cabd 6514 c5bd 3c08 5cbd c4de 2e3e
000000c0: f19d 1fbe f3cb 193a 168b a4be 5121 cbbd
000000d0: d604 34be 86e8 dcbe abb8 863d 09e1 d2bd
000000e0: 80a9 1b3c 547e 3dbe c916 6e3f 8db0 20bf
000000f0: be2f b03e 1a45 a83f 08c3 cdbc 4826 3b3f
00000100: c8f8 263e 4588 5ebb f089 a43d 2536 49be
00000110: 1c03 81be 50ad cabc 5ba1 713c 064f 05be
00000120: 6090 7939 c76f eebd abf1 eb3d 210b 7bbf
00000130: 3fb3 c43e 56c8 a5bf 6da7 1e3e 8caf 643f
00000140: 0d0d b63e b140 3e3c 17da b0be ea83 383e
00000150: e819 e83e b432 9fbe e39e ae3e 23e0 9cbe
00000160: b0ce 09bc 4f42 39bd 787c b3bf 4013 42bc
00000170: 1d17 9dbe 0b07 69bf 0843 693e 3a3f 82be
00000180: 313f 143f aea8 c039 5d0c 0ebf bd6f 70be
00000190: 3ffa 293f 82af a2bf 0ca2 d3be 19c9 6abf
000001a0: 6a5e d13c 7d4d 97bd 8a1a c63e b081 d5bd
000001b0: 4c2e 85bd b77c 26be 9f80 f23c 3705 ac3e
000001c0: 7381 afbe ef70 133d a6cb a13e ad76 e4bd
000001d0: ec8e 09bf 17b5 213e f38e 8d3d 96a9 f43a
000001e0: 68d3 e6bc b6b1 4c3c 9dde 2cbf 408d 66bf
000001f0: 808d fa3e 5093 603e 7c42 5abb 12dd b23e

model.blocks.3.net.3.weight f4 [8]
1.4355255 1.5146977 0.5016113 1.1906132 1.1354877 1.4823295 1.0552862 1.0369376
00000000: 4dbf b73f 9de1 c13f 9969 003f 0366 983f
00000010: a957 913f f9bc bd3f 9e13 873f 5fba 843f

model.blocks.3.net.3.bias f4 [8]
-0.17758664 -0.24714749 0.73399824 0.10466314 0.17062052 -0.19217955 0.25780138 0.10398381
00000000: 46d9 35be 3b14 7dbe 4fe7 3b3f a159 d63d
00000010: 25b7 2e3e b7ca 44be 8bfe 833e 77f5 d43d

model.blocks.3.net.3.running_mean f4 [8]
-1.262446 0.51363426 0.774213 4.0732627 -2.3464198 -4.46809 -0.083190925 -0.87850434
00000000: d597 a1bf 897d 033f d332 463f 2b58 8240
00000010: be2b 16c0 98fa 8ec0 0160 aabd a9e5 60bf

model.blocks.3.net.3.running_var f4 [8]
3.172424 2.7990215 0.77686656 2.488223 2.552925 2.8242183 0.9873932 1.1946802
00000000: ff08 4b40 2b23 3340 bae0 463f 0c3f 1f40
00000010: 2063 2340 febf 3440 cdc5 7c3f 48eb 983f

model.blocks.3.net.5.weight f4 [8, 8, 3, 3]
-0.08814008 0.27278316 -0.2669136 -0.27662912 0.51774985 -0.30762222 -0.30703932 0.31043884
-0.036474366 -0.11636167 0.213229 -0.13145678 -0.18994443 0.37031034 -0.22402325 -0.25176448
0.09589787 -0.026452316 -0.20572585 0.20599937 -0.0714099 -0.19911912 0.17839077 0.043936927
-0.3537171 0.17051093 -0.1423979 0.021573897 -0.100298055 0.109553576 -0.117115974 0.021224711
0.050321978 -0.0991088 -0.12672614 -0.046578273 0.21214032 -0.3591591 0.23390912 0.20026739
-0.4177129 0.38446188 0.11036214 -0.2193009 0.120667726 0.05041001 0.0013551995 -0.010433522
0.02926168 0.0967755 0.043227755 -0.052309386 -0.080750726 -0.0098303575 -0.18363802 0.1584759
0.01275965 -0.21550338 0.22614932 -0.05425783 -0.24202904 0.13381283 0.08137499 0.35279873
-0.29178676 0.3067314 0.5269601 -0.46652898 0.3495573 0.3423469 -0.31422663 0.24163063
0.2074381 -0.16774105 0.47268307 0.2838544 -0.22001852 0.3643102 0.32235575 -0.09481028
0.2025378 -0.2112238 -0.18323135 -0.10123416 -0.104991846 -0.1283253 0.050267536 -0.15200755
-0.1887212 0.042680122 0.05976462 -0.038016256 0.37657467 -0.25463143 -0.2742138 0.26288053
0.1677685 0.0076604364 0.44310826 -0.12747905 0.21594253 -0.20519425 -0.11226385 0.06632238
0.110253625 -0.12620364 -0.2328221 -0.05382303 -0.17433333 -0.005527247 0.0038156942 0.021912102
-0.045702614 0.2522489 -0.042273197 0.2769761 0.11846743 0.101640224 -0.15319599 -0.07947953
0.09407628 -0.07084199 -0.27595177 -0.04965449 0.11447151 -0.25669092 -0.15268993 -0.05166149
0.109138265 -0.1510638 -0.029240265 0.18041277 -0.23124112 0.078483835 0.270426 0.25592923
0.3895751 -0.042836957 0.34403297 0.4990712 0.08533767 0.07533004 0.49122292 -0.015593769
-0.071081124 -0.21807037 -0.1201821 -0.22549729 -0.21813002 -0.19292948 -0.11394773 -0.22899902
-0.19662191 0.3925542 0.55992186 0.27332574 0.69580984 0.8587773 0.7663132 0.38818988
0.6580724 0.5475125 0.32957378 0.2697753 0.0047839056 0.42067695 0.053721268 0.31170157
0.01908346 0.34486914 0.17870505 -0.04655421 -0.2629366 -0.06807682 -0.14167587 -0.51342
-0.15422878 0.030596208 -0.088357605 -0.2005514 0.26621476 0.3567973 0.08598797 0.5054734
0.63708985 0.44648388 0.15431704 0.52217025 0.29427156 -0.1693364 -0.15804225 -0.1704319
0.0981974 -0.23210914 -0.18969445 0.13215156 -0.023628175 -0.03541248 -0.40160358 -0.5176986
-0.16161743 -0.26393482 -0.18292409 -0.33052254 0.058765713 -0.19750929 -0.24892843 -0.03608765
-0.2586089 -0.21529631 -0.0794046 -0.18645886 -0.1739549 -0.34611183 -0.47416368 -0.23799479
-0.123534255 -0.3046281 0.04543737 -0.5871794 -0.7101822 -0.61668944 -0.52967167 -1.1042434
-0.7016318 -0.10742662 -0.047757793 0.025197072 -0.011691154 0.11763004 -0.12975158 -0.008257685
-0.14901532 -0.13322765 0.105961055 0.32388228 0.41203153 0.04306813 0.07677194 0.45065978
0.21386936 0.31247738 0.31861657 -0.18580042 -0.07967591 -0.18580255 -0.41158715 -0.43753755
-0.3389539 -0.32250276 -0.63124025 -0.39273024 -0.28197643 -0.2807907 -0.09397728 -0.456694
00000000: c982 b4bd 3caa 8b3e e6a8 88be 55a2 8dbe
00000010: 418b 043f a980 9dbe 4234 9dbe d7f1 9e3e
00000020: 2566 15bd 074f eebd b458 5a3e 9b9c 06be
00000030: cb80 42be 5199 bd3e 5a66 65be 46e7 80be
00000040: 1a66 c43d 87b2 d8bc cca9 52be 80f1 523e
00000050: 5b3f 92bd e2e5 4bbe 12ac 363e 35f7 333d
00000060: 681a b5be 6b9a 2e3e c1d0 11be bebb b03c
00000070: 1169 cdbd a05d e03d 80da efbd 72df ad3c
00000080: 6b1e 4e3d 8ef9 cabd 7fc4 01be dcc8 3ebd
00000090: 503b 593e b4e3 b7be df85 6f3e e512 4d3e
000000a0: 77de d5be 30d8 c43e 8c05 e23d 6a90 60be
000000b0: a420 f73d ba7a 4e3d f3a0 b13a 5df1 2abc
000000c0: 31b6 ef3c 3c32 c63d 960f 313d 5e42 56bd
000000d0: a360 a5bd 820f 21bc 9b0b 3cbe 8247 223e
000000e0: da0d 513c ebac 5cbe b093 673e 753d 5ebd
000000f0: 76d6 77be 3b06 093e eea7 a63d 09a2 b43e
00000100: 1365 95be e60b 9d3e dbe6 063f e3dc eebe
00000110: 2df9 b23e 1848 af3e 50e2 a0be 056e 773e
00000120: a76a 543e 4fc4 2bbe 8403 f23e 5d55 913e
00000130: 894c 61be de86 ba3e d00b a53e e42b c2bd
00000140: 1266 4f3e 0d4b 58be 00a1 3bbe db53 cfbd
00000150: f705 d7bd b567 03be 55e5 4d3d dea7 1bbe
00000160: 2140 41be 5ad1 2e3d bfcb 743d efb6 1bbd
00000170: 65ce c03e 0d5f 82be c065 8cbe 4798 863e
00000180: 81cb 2b3e 6604 fb3b 16df e23e de89 02be
00000190: 0a20 5d3e 711e 52be 97ea e5bd 07d4 873d
000001a0: a7cc e13d 873b 01be eb68 6ebe 8a75 5cbd
000001b0: 7084 32be e91d b5bb ba10 7a3b 0281 b33c
000001c0: aa32 3bbd c526 813e a926 2dbd d0cf 8d3e
000001d0: 0d9f f23d c028 d03d 69df 1cbe 2ac6 a2bd
000001e0: 11ab c03d 9b15 91bd 8d49 8dbe 8262 4bbd
000001f0: 0a70 ea3d fe6c 83be c05a 1cbe 009b 53bd
00000200: e283 df3d 78b0 1abe 4889 efbc 20be 383e
00000210: 79ca 6cbe 22bc a03d 4775 8a3e 2809 833e
00000220: 6376 c73e ce75 2fbd 1725 b03e 4386 ff3e
00000230: 84c5 ae3d a346 9a3d 9281 fb3e 027d 7fbc
00000240: fb92 91bd d74d 5fbe 0822 f6bd c3e8 66be
00000250: 7a5d 5fbe 4e8f 45be 6d5d e9bd b87e 6abe
00000260: 4157 49be ddfc c83e 0a57 0f3f 5af1 8b3e
00000270: 9820 323f d4d8 5b3f 1a2d 443f d3c0 c63e
00000280: 6f77 283f c729 0c3f e5bd a83e fd1f 8a3e
00000290: 4fc2 9c3b f862 d73e d50a 5c3d 5997 9f3e
000002a0: eb54 9c3c b092 b03e 75fe 363e a1af 3ebd
000002b0: a09f 86be dc6b 8bbd 7b13 11be 7e6f 03bf
000002c0: 26ee 1dbe e6a4 fa3c d5f4 b4bd 595d 4dbe
000002d0: 4d4d 883e 23ae b63e 761a b03d b466 013f
000002e0: 5218 233f 8999 e43e 4905 1e3e f3ac 053f
000002f0: c3aa 963e 8566 2dbe d4d5 21be b385 2ebe
00000300: b81b c93d 05ae 6dbe 433f 42be bd52 073e
00000310: e08f c1bc ad0c 11bd fc9e cdbe e587 04bf
00000320: 0a7f 25be 7722 87be 7450 3bbe 403a a9be
00000330: 51b4 703d e03f 4abe 18e7 7ebe a5d0 13bd
00000340: 6368 84be a376 5cbe e19e a2bd 12ef 3ebe
00000350: 3c21 32be 9235 b1be 95c5 f2be e8b4 73be
00000360: 87ff fcbd 37f8 9bbe 891c 3a3d 6451 16bf
00000370: 80ce 35bf 5cdf 1dbf 9098 07bf d957 8dbf
00000380: 249e 33bf 7d02 dcbd ad9d 43bd 176a ce3c
00000390: 418c 3fbc 05e8 f03d 99dd 04be 3e4b 07bc
000003a0: 7997 18be d46c 08be 1c02 d93d e6d3 a53e
000003b0: ccf5 d23e 3568 303d 9b3a 9d3d e1bc e63e
000003c0: 9200 5b3e 09fd 9f3e b621 a33e 7742 3ebe
000003d0: 202d a3bd 0643 3ebe 8dbb d2be ec04 e0be
000003e0: 5e8b adbe 151f a5be f698 21bf f013 c9be
000003f0: 375f 90be ccc3 8fbe 2977 c0bd ccd3 e9be

model.blocks.3.net.6.weight f4 [8]
0.9134415 0.47994143 0.7132278 0.80438817 0.79335046 0.7051473 0.9131961 0.7849965
00000000: 4dd7 693f e2ba f53e 1996 363f 62ec 4d3f
00000010: 0419 4b3f 8984 343f 38c7 693f 88f5 483f

model.blocks.3.net.6.bias f4 [8]
0.033210997 0.37457386 1.5385655 1.4941136 -0.16908586 0.16554315 0.28113458 1.2935163
00000000: 4108 083d 25c8 bf3e b7ef c43f 1d3f bf3f
00000010: d824 2dbe 2584 293e dff0 8f3e f191 a53f

model.blocks.3.net.6.running_mean f4 [8]
0.0173026 1.384486 1.2375789 -4.7111416 -0.7918125 0.94547534 -2.500632 2.7779565
00000000: 2fbe 8d3c d636 b13f fc68 9e3f acc1 96c0
00000010: 39b4 4abf ac0a 723f 5b0a 20c0 0aca 3140

model.blocks.3.net.6.running_var f4 [8]
5.362083 2.2524986 7.5878906 9.098648 1.9138968 3.6898503 5.283222 7.89337
00000000: 2f96 ab40 f028 1040 00d0 f240 1094 1141
00000010: 92fa f43f 8226 6c40 2810 a940 7d96 fc40
