saved_models/ResNetBottleneck/lightning_logs/version_0/checkpoints/epoch=179-step=63179.ckpt (torch, 152269 bytes, 146 tensors)

model.input_net.0.weight f4 [16, 3, 3, 3]
00000000: f909 223f 252a c13f 77a8 a93f 7d84 ae3e
00000010: ad72 993e 44d9 bfbd 714e 0fbf 16b2 c9bf
00000020: b56b 01c0 9739 7abe 8d3d 24bf 8afb 14bf
00000030: 2f9d 1abe cc87 3fbe de3b 3a3d a353 e53e
00000040: cdb4 0b3f 9cf4 4a3f 5eb9 1dbf d2c7 83bf
00000050: 5282 86bf 9385 89be 2531 823d 2e75 843e
00000060: fdbf b73e 016c 853f 6b27 aa3f 879d 963d
00000070: f930 70be 5977 463f 58d9 1fbd afc6 5b3f
00000080: 473f 01c0 a301 23be 9199 4c3e 1769 373e
00000090: deab aabc 3ac7 a93e 44a6 283e 9c2f 3bbd
000000a0: a8a6 a73f 33b7 24c0 9af1 32be fba6 033f
000000b0: 5ed5 d33e 4472 4ebe a244 5bbe 923a 0e3f
000000c0: ab52 b3be fbdb 813f 01fe 50bf 97f2 d9bd
000000d0: d3ac d93d 6726 073f 612f a4bb 7a88 04bb
000000e0: 202e b4ba 0db9 9b39 1ef9 5bbb e2e2 503b
000000f0: 24b5 bab7 d763 2bbb 174a 1ebb 0fdc 8b3a
00000100: 0aed 8abb 7809 0cbc 17d8 11bb 2ec8 903a
00000110: 0162 dcb8 f848 5c3a 4970 80bb 1ebe 9e3a
00000120: 8781 ceba e2fe 9539 52c0 c4bb e6c9 1bbb
00000130: 25df ccbb 61a2 3abb 6584 afbb 07a3 c5bb
00000140: 99ee 55ba 575d d1bd 5afd 663e 7c31 1f3f
00000150: bb03 8ebe daa9 b3be d258 ab3e 0822 d7bd
00000160: 59c9 30bf deac 08be f99a 5abc 1740 8cbe
00000170: 8d87 3cbe ecc9 d43d 1684 f4be 434f 6cbe
00000180: dcdd 283f a2ed 8dbe 29a0 24be da63 b53d
00000190: 1b40 953d ac12 bd3d d590 af3d c2db f6bd
000001a0: 5b06 aa3b 420e b93e 555f 32be 0034 9abd
000001b0: f46c 07bf 4b8e d1bf a400 b9bf e0aa 89bc
000001c0: bbe2 12be a655 85bd 2902 313f a5b9 c13f
000001d0: 0325 b83f 16a8 4b3e d7b5 f3be d4e2 57be
000001e0: 4c54 b5bd 90a8 013e 6907 783e 8ba6 cabe
000001f0: b3ad ea3e bdc9 a83e f841 de3e cd8c 94be
00000200: 4c67 15be 3e1f 1bbc 7430 efbd 56a6 70bc
00000210: f0f0 1fbe a6a4 173e cf5e 7b3d 593a 39bc
00000220: be7c 4fbc 1447 53bc 9214 61bc d641 3dbc
00000230: 140a ddbb 65f1 4d3a c758 eaba cfad ed3b
00000240: bcfd 3cbc 2372 60bb d7c4 14bb 93fc f5ba
00000250: 5806 243b 1675 923a 21df 143b 510d fc3b
00000260: 7c3d f13b 0315 f0bb 4305 9fbb 3429 f3bb
00000270: 355a 7fba 4283 033c 29fe 453b 2ce8 303c
00000280: c541 853c 2c65 5d3c b9e6 a4bc c624 0fbf
00000290: 00f4 e5be 9152 d3be 9e04 8cbf 89c1 71bf
000002a0: ab1b 763c 866a 43bf 8be6 d3be bb86 dd3d
000002b0: 8339 a43f 9333 8f3f 6a02 dc3e 5d86 d03f
000002c0: 122b bb3f b13b 9b3d 85e9 483f f614 493f
000002d0: c561 f0bd cb14 10bf 8677 40bf cca4 6cbe
000002e0: 0ca6 30bf 52ab 53bf 34ae c73d 390d a6be
000002f0: 411c b5be f57f 563c 806e 843c 1e31 ed3b
00000300: dd37 e33b ba2d 093c 975e 643c d110 01bc
00000310: e10b 39bc bc86 afbb fd8e 8a3a 300f dc39
00000320: cb49 6f3a 1f57 4ebb 9b5c 2cbb a1a1 553a
00000330: 1c46 783a ba12 55bc 7e95 0fbc db8d 2c3c
00000340: 45c1 053c 494c 9d3b e1ac 0a3c 25fe d53b
00000350: 8dc7 bf3b 4a16 e53b 8be0 8bbb a639 f5ba
00000360: fc8e d73e e723 55be 9e90 533e 1eb9 e4be
00000370: 07f2 97bf 3bbd 463f 9ee7 21bc 229a e8be
00000380: c55e 403f 1131 13be bc72 18bf 397f 423f
00000390: 9f89 5ebf 8756 b5bf 7691 b43f 0533 57be
000003a0: 54e9 06bf 576e 973f 6f4a 61be 9a58 d3be
000003b0: cf62 853e bc97 64bf 3838 6dbf e26f 8d3f
000003c0: b017 5abe 634d ad3a 46f6 ad3f 5de7 d8bd
000003d0: a6d7 093e 0113 0c3e f4c2 04be 1aff 8a3d
000003e0: b5f4 8fbe 4bef adbd d9c6 2abd 18b2 a13d
000003f0: 63aa 163e c682 ac3e b812 4d3e a085 b03d
0.6329647 1.5090986 1.3254536 0.34085456 0.29970303 -0.09367612 -0.5597907 -1.5757473
-2.022199 -0.24436031 -0.6415642 -0.5819632 -0.15099023 -0.18704146 0.04546725 0.44790372
0.54572755 0.79279494 -0.6161097 -1.0295355 -1.0508521 -0.26859722 0.0635703 0.2587065
0.35888663 1.0423585 1.329328 0.07354265 -0.23456182 0.7752586 -0.039025635 0.8585004
-2.0194871 -0.15918593 0.19980456 0.17911182 -0.020833906 0.3315981 0.16469675 -0.0456997
1.3097734 -2.5736816 -0.17474976 0.51426667 0.41373724 -0.20160776 -0.214129 0.5555812
-0.35024008 1.0145258 -0.8163758 -0.106419735 0.10628667 0.5279297 -0.005010531 -0.0020222948
-0.0013746656 0.00029701777 -0.0033565233 0.0031873514 -2.2257278e-05 -0.0026152038 -0.0024153048 0.0010670441
-0.004239683 -0.008547179 -0.0022254044 0.0011045986 -0.00010508672 0.0008403207 -0.0039196354 0.0012111103
-0.0015755155 0.00028609397 -0.0060043717 -0.0023771464 -0.006252187 -0.0028478133 -0.005356359 -0.0060313973
-0.0008160859 -0.10222881 0.22557583 0.6218488 -0.2773722 -0.35090524 0.33466202 -0.10504538
-0.6905723 -0.13347194 -0.013342612 -0.27392647 -0.18411084 0.10390076 -0.47757024 -0.23077111
0.6596353 -0.27720362 -0.16076721 0.08856936 0.07287618 0.09232077 0.085725464 -0.12053634
0.005188746 0.3614369 -0.17419179 -0.075294495 -0.52900624 -1.6371549 -1.445332 -0.016805112
-0.14344303 -0.06510477 0.6914392 1.5134779 1.4386295 0.19888338 -0.4759967 -0.21082622
-0.08853969 0.12661958 0.24221577 -0.39580187 0.45835647 0.32966414 0.43409705 -0.29013672
-0.14590186 -0.009467898 -0.116791636 -0.014688095 -0.15619254 0.14808902 0.061369713 -0.011305415
-0.012664018 -0.012895364 -0.0137378145 -0.011551341 -0.006745586 0.00078561 -0.0017879241 0.0072533856
-0.011535104 -0.0034247718 -0.0022700334 -0.001876729 0.0025028195 0.001117381 0.0022716003 0.007692017
0.007362066 -0.0073267235 -0.004852922 -0.0074206833 -0.000974092 0.0080269 0.0030211306 0.010797542
0.016266713 0.013512891 -0.020129548 -0.55915487 -0.4491272 -0.4127393 -1.0938909 -0.94435936
0.015021245 -0.76334417 -0.41386828 0.108167134 1.2830051 1.1187614 0.42970592 1.6291004
1.4622519 0.075797446 0.7848132 0.7854761 -0.11737398 -0.5628173 -0.7518238 -0.2310974
-0.6900337 -0.8268329 0.097500235 -0.32431963 -0.3537312 0.013092031 0.016165972 0.0072385212
0.0069341497 0.0083727185 0.013938568 -0.0078775445 -0.011294336 -0.0053566378 0.0010571178 0.00041972985
0.00091281225 -0.0031485034 -0.0026300314 0.000814939 0.00094708963 -0.013004953 -0.008763669 0.010531868
0.008163755 0.0048003537 0.008464069 0.0065305405 0.0058526457 0.0069911825 -0.004268711 -0.0018709197
0.42101276 -0.20814477 0.20660636 -0.44672483 -1.1870736 0.7763249 -0.009881882 -0.45430094
0.75144607 -0.14374186 -0.5955007 0.75975376 -0.86928743 -1.4167031 1.4106891 -0.21015556
-0.5269978 1.1830548 -0.2200105 -0.41278535 0.26051947 -0.8929403 -0.9266391 1.1049769
-0.21298099 0.0013221916 1.3590782 -0.10591004 0.1346117 0.13679124 -0.12964994 0.06786938
-0.28116384 -0.08492907 -0.041693542 0.07895297 0.14713435 0.33693522 0.20026672 0.08619237

model.input_net.1.weight f4 [16]
00000000: 8b2d 963f 3e23 0f3f 4f82 d53b b68d 853f
00000010: 746d 853f 8b77 a03b e7a9 8f3f 7d35 e63a
00000020: 1065 833f c7b8 b13e 310f 3a3a bf21 543f
00000030: f306 613f 26dc 4f3f 115d 103f f09f 373f
1.1732649 0.5591315 0.006515778 1.0433872 1.0424027 0.004897063 1.1223725 0.0017563548
1.0265217 0.34711286 0.00070976006 0.8286399 0.8790123 0.81195295 0.5639201 0.7172842

model.input_net.1.bias f4 [16]
00000000: 0fce d0bd 8648 d43f b256 88bc 5e5e 2fbf
00000010: d0c5 733f 09ff dcbc 82c8 f53e 98a9 03bc
00000020: c3d2 963f 75b2 82bd 7a0d 3ebc acca 753f
00000030: 8404 36bf 5c70 8c3f fb2a debe d6f9 9b3f
-0.101955526 1.6584632 -0.016642902 -0.6850337 0.9522371 -0.026977079 0.48004538 -0.00803604
1.1783069 -0.06381694 -0.011599893 0.9601238 -0.7110064 1.0971789 -0.43392166 1.2185619

model.input_net.1.running_mean f4 [16]
00000000: d770 dabc d690 88bc 815e 933a e5be 423c
00000010: beb2 8bbc e0d3 72ba 9856 23bd a47b fcb9
00000020: d523 15bc 19c9 fbbc b57d 4b3b f228 6f3d
00000030: 27dd 0d3d 286a 8bbd a93e 69bb 6f63 9dbc
-0.026665134 -0.016670626 0.0011243374 0.011886333 -0.017053004 -0.0009263139 -0.039877504 -0.00048157305
-0.009102781 -0.03073554 0.003105027 0.058388658 0.034634735 -0.06807357 -0.0035590327 -0.019212453

model.input_net.1.running_var f4 [16]
00000000: 68b6 993f 330b b63f 4104 233b 198f ab3f
00000010: ef3e bc40 5ff7 3d3b 1374 8e40 3ea7 773b
00000020: f5d5 0c41 d649 ae3f a76e c93c 716e 0d41
00000030: ed92 7a3f 2e50 9740 1bda d83e e30c 8440
1.2008791 1.4222168 0.0024874362 1.3403045 5.8826823 0.0028986556 4.451669 0.0037788893
8.802236 1.3616283 0.024588896 8.839463 0.9788044 4.7285376 0.423539 4.126573

model.blocks.0.net.0.weight f4 [4, 16, 1, 1]
00000000: ab7b e5bd e28a 8c3e 248d 80bb ab12 74bd
00000010: c75e 613e 7b69 d53c 4275 003f 140e 3cbc
00000020: 78bd 10be 43b4 97be 5300 bbbd ab64 29bd
00000030: 966d 06be 2579 863f 5083 c63e e328 203f
00000040: 52eb 273d 240a eabf 8c4a 4d3c 7a0d 04be
00000050: 72ef e03d 7085 383b 9b30 eabd 0b63 dd3b
00000060: 9637 aebd 93ce b7be 3cd9 6e3d c650 fcbd
00000070: 751b 8e3d b9b6 773e 887a a93e e3e8 c03d
00000080: 0cbb 4bbe c144 713e 50c1 16bc 5f08 86be
00000090: 3ad9 dcbe 3777 07bd 7312 78bd 838e 053d
000000a0: 605f 693f 6b68 d13d 2def a83b 0eb9 ad3e
000000b0: ed75 a33d 3c9d dfbe 9bdc d1bd 198f 273f
000000c0: 9db8 c63d 757c 5f3d 5bca 343c 4225 173f
000000d0: a583 233f 2ef6 c43c 8a1b 03be 6c15 84bc
000000e0: fc6b 183e dbb9 9ebe 7549 793d 8685 52bf
000000f0: 1e47 9a3d a548 5f3d 0f98 9fbd a7cf 82be
-0.112052284 0.2744971 -0.0039230753 -0.059588116 0.22008811 0.026051274 0.5017892 -0.011477966
-0.14134777 -0.29629716 -0.09130921 -0.04135577 -0.13127741 1.050572 0.38772058 0.6256239
0.040995903 -1.8284345 0.01252998 -0.12895766 0.109831706 0.0028155707 -0.11435052 0.0067561916
-0.08506696 -0.3589979 0.05831264 -0.12320094 0.06938831 0.24190797 0.33101296 0.094194196
-0.19895571 0.23561384 -0.009201363 -0.26178262 -0.4313448 -0.033072677 -0.06056447 0.032606613
0.91161156 0.10224994 0.005155465 0.33930248 0.07981477 -0.43674648 -0.10247155 0.65452725
0.09703181 0.05456205 0.011034573 0.59041226 0.6387275 0.024043169 -0.12803474 -0.016123496
0.14884943 -0.3100117 0.06086107 -0.8223499 0.07533096 0.05451264 -0.07792675 -0.2554905

model.blocks.0.net.1.weight f4 [4]
00000000: 69da 3d3f 4078 263f f7f2 0b3f 4160 253f
0.7416139 0.65027237 0.5466761 0.64599997

model.blocks.0.net.1.bias f4 [4]
00000000: 69d0 033f b2d4 dd3f b7d0 343f 449b 373e
0.51489884 1.7330534 0.70630974 0.17930323

model.blocks.0.net.1.running_mean f4 [4]
00000000: fd0d 2d40 dad9 36c0 2b5a cd3f cd25 09be
2.7039788 -2.8570466 1.6043142 -0.13393326

model.blocks.0.net.1.running_var f4 [4]
00000000: ea24 933f cc51 813f a8e0 963f 817a a63f
1.149564 1.0103087 1.178731 1.3006135

model.blocks.0.net.3.weight f4 [4, 4, 3, 3]
00000000: 93d2 953e a4c3 4c3f d65f c73e 22d6 b5bd
00000010: 657a 73be b956 c5bd 0ca7 62be b491 3fbf
00000020: 1d67 61bd ee8a e83e 2faf 1a3f 2205 faba
00000030: fbca 773c 42f3 44be 53a9 323e efaa 4cbf
00000040: c1b5 b4bd 3f8c 333e aec8 39bc 8446 45be
00000050: 354a febe e521 1bbe e981 7e3e c61f 403e
00000060: 5dcb 893a 104e a23c f702 633d 0333 97be
00000070: 5944 08bf 68dd 28bf 11bf be3d 9a69 8fbe
00000080: aafd a8bc e1bd 213d fb3a 8b3c 8abf 7b3e
00000090: 5c1c 093e d474 a2be fab0 29be 3821 62be
000000a0: 75f8 6e3d 429f 043f 73ae 97bd d94a e13d
000000b0: 4673 a7bc 17dc 2cbe 9e23 2dbf 54e1 5d3e
000000c0: c738 b4be 02b8 0940 87ce a7bf 28b3 5f3e
000000d0: 615b 73bf a851 dbbe 8003 86be 0252 003f
000000e0: 7fe0 c1bd c755 463c 059a 1b3e ac46 6dbe
000000f0: 6be7 813d ea98 893d 4eaa 963e 4f41 663d
00000100: 23f0 b33d 044a d93e f98a fb3c f228 93be
00000110: 2cf5 1cbf 43c4 1e3e e9e7 fd3c 9ec5 45be
00000120: fad1 213e dd3b abbe 5793 14bf 1a18 d43e
00000130: b48d d53d e40f 0ebf be6d f03e 1946 233f
00000140: 5336 33be 50eb cb3d 2f94 523e ee0e 8a3e
00000150: d3b1 783d 4da0 fabd efa9 cb3d 7d8a 07be
00000160: 0071 1b3d 8668 23bd 164f 563e 6bd7 7c3c
00000170: c4ed 273e fb0e 2cbe ca8b 093d 2d6b 923e
00000180: 01b8 bcbe 92e2 703d 0c91 533e c215 73be
00000190: af70 4bbe 63b7 9f3d b9dd 4ebe f47d 8abe
000001a0: 1877 a2bd 1207 953d 210a a8bd c715 88be
000001b0: 9be4 fc3b f27c 043e 107f 8dbe 99c0 cb3e
000001c0: abae a33e fc81 38bf e71d 8b3d 427c 9a3e
000001d0: ec77 06bf c088 50be 650a 033b 2cda 563d
000001e0: 2ef0 293f fdef 3ebf 0779 f8be c935 81be
000001f0: 69f3 4a3d ad1d 05bd da24 9ebe a106 bf3e
00000200: 32e5 b1be e521 d9be d676 d7bd 0ca2 80bf
00000210: 1819 9a3d 4a3f d83e 2971 56bf 7123 f93d
00000220: 7019 aebd 79fb 27be d26e 08bf e86c 12be
00000230: 6455 833d d02d 8abe 519c 04be 376a 8e3e
0.29262218 0.79986024 0.38940305 -0.08878733 -0.23777159 -0.09635682 -0.22134036 -0.748317
-0.055029977 0.45418495 0.6042356 -0.0019075016 0.015124078 -0.1923342 0.17447405 -0.79948324
-0.08823729 0.17533968 -0.01133935 -0.19265181 -0.4966599 -0.15149648 0.24854244 0.1876212
0.0010512877 0.019812614 0.05542275 -0.29531106 -0.5322929 -0.6596284 0.09313787 -0.28010255
-0.020628769 0.039487723 0.016995898 0.24584785 0.13389724 -0.31729758 -0.16571417 -0.22082984
0.058342416 0.5180551 -0.074063204 0.11000604 -0.020440709 -0.16880833 -0.6763247 0.21667987
-0.35199568 2.151856 -1.3109902 0.21845686 -0.9506131 -0.42835736 -0.26174545 0.50125134
-0.09466647 0.012105412 0.15195473 -0.2317149 0.063429676 0.06718619 0.29426807 0.056214627
0.08786037 0.42439282 0.030705916 -0.28742176 -0.613116 0.15504555 0.030994372 -0.19313666
0.15802756 -0.3344411 -0.5803732 0.41424638 0.10427418 -0.55493 0.46958727 0.63778836
-0.17501192 0.09956992 0.2056434 0.26964515 0.06071646 -0.12237606 0.09944522 -0.13236423
0.037949562 -0.039894603 0.20928606 0.015432219 0.16399294 -0.1680259 0.03358058 0.28597394
-0.36859134 0.058809824 0.206608 -0.23738769 -0.19867204 0.0779865 -0.20201768 -0.2704922
-0.079328716 0.07276739 -0.08205057 -0.26579115 0.0077176816 0.12938288 -0.27636003 0.39795378
0.319692 -0.7207334 0.06792813 0.30172926 -0.52526736 -0.20364666 0.001999521 0.05245416
0.6638211 -0.74584943 -0.48529837 -0.25236347 0.04954854 -0.032499004 -0.3088749 0.37309745
-0.34745175 -0.42408672 -0.10520713 -1.0049453 0.075243175 0.42235786 -0.8376642 0.12164963
-0.085009456 -0.16404523 -0.532941 -0.14299357 0.06412771 -0.26988077 -0.12950255 0.2781541

model.blocks.0.net.4.weight f4 [4]
00000000: 4203 0f3f d4f0 fa3e 96bf fc3e fdaf 033f
0.55864346 0.49011862 0.49364918 0.5144041

model.blocks.0.net.4.bias f4 [4]
00000000: ba1c 0e3f e3ec a63f 34c4 73bc 219a 413f
0.55512583 1.3041042 -0.014878321 0.7562581

model.blocks.0.net.4.running_mean f4 [4]
00000000: d39e 95bd e3a6 e5bf e6d9 4f3f 6fdd 62c0
-0.07305684 -1.7941555 0.8119186 -3.5447652

model.blocks.0.net.4.running_var f4 [4]
00000000: e4f9 c73f 9a88 e63f 2005 0f3f a402 0940
1.5623136 1.8010437 0.55867195 2.1407862

model.blocks.0.net.6.weight f4 [16, 4, 1, 1]
00000000: fa5c dfbe 603b adbd 17a1 523e 918b c0bc
00000010: 7187 823e c677 8ebf 42dc 923e abe3 7d3c
00000020: cb8d 15bf 20eb 09bd f305 0b3f 5a7b d83e
00000030: fd70 0d3f 11ae 2d3e 6717 783d 2c73 13bf
00000040: 6846 15bf 071c 11be 7cae dbbd 611f b8bc
00000050: 73ea 333e 3c2b dbbd 0e71 05be 02f4 c43c
00000060: c913 0abe 6cc9 51be a43a 42be bb74 8dbe
00000070: e5aa 0c3e 05b6 3d3f 83fd 5abd 6d6d 26be
00000080: ac79 96bd 7cad bc3d 57f0 3a3e 3366 6fbf
00000090: 5b68 553e fbca 38be 9ce4 82bd ba29 5b3e
000000a0: f4b4 933e 75ad 23bf f21d 74bd 8091 363d
000000b0: c68c ba3e 493f 353e b7b3 d1bb ac35 e43e
000000c0: 6f13 babd 48ba a33e 00fc 1e3f 8184 193d
000000d0: 0fbf 36be 7219 81be ec2e e03b 90ba 463e
000000e0: bf47 593d d077 113c a14b 11bc dbe1 03be
000000f0: c63b e53e 4d54 54be 1a04 9fbe 077d 55be
-0.43625623 -0.084585905 0.20569263 -0.02350405 0.2549396 -1.1130302 0.28683668 0.015496175
-0.58419484 -0.0336715 0.5430595 0.4228161 0.5525053 0.16960932 0.060569193 -0.57597613
-0.58310556 -0.14170848 -0.1072664 -0.0224759 0.17569904 -0.10701606 -0.13031408 0.024042133
-0.1348411 -0.20486993 -0.18967682 -0.2762812 0.13737066 0.74105865 -0.053464424 -0.1625268
-0.07347426 0.09212777 0.18255745 -0.9351532 0.2084059 -0.18046181 -0.0639126 0.21402636
0.28848994 -0.6393655 -0.05959887 0.044572353 0.36435527 0.17699923 -0.0063995975 0.44572198
-0.09085738 0.3197806 0.6210327 0.03747988 -0.1784632 -0.25214726 0.006841531 0.19407105
0.053046938 0.008878663 -0.008868129 -0.12879126 0.44772166 -0.20735283 -0.31057817 -0.20848475

model.blocks.0.net.7.weight f4 [16]
00000000: 888c 173e e45d ff3e 924a d33e b491 2a3f
00000010: 3037 593e f293 ac3d 8aec e23d 78ab cb3e
00000020: 666a de3e 4069 15bd 523a 9a3e c408 f63d
00000030: 6813 833e 95b2 5a3d d677 0ebe 14d5 173e
0.14799702 0.4987632 0.4126783 0.66628575 0.21212459 0.08426656 0.110802725 0.39779258
0.4344055 -0.036477327 0.3012262 0.12013391 0.25600743 0.053392965 -0.13912901 0.14827377

model.blocks.0.net.7.bias f4 [16]
00000000: 543d 9ebc adda 423e 7fae d03c 8c97 a23e
00000010: 59ed 4abd 15f5 3a3d d3c2 d73d d8d4 b23e
00000020: 7585 023f dbca 14bf 6fb2 7d3e 9528 ba3d
00000030: 225d c23e be27 ba3d 6c10 2abe a3f3 3a3e
-0.019316353 0.1902873 0.025473831 0.31756246 -0.04954276 0.045643885 0.10535207 0.34928012
0.5098489 -0.5812203 0.24775098 0.09089772 0.3796168 0.090896115 -0.16607827 0.18257003

model.blocks.0.net.7.running_mean f4 [16]
00000000: e4c0 b9be 4711 9ebf 6de1 b43c d03c f93d
00000010: 4d1e 15bf 0fd4 10bd caff 19bf f4b7 6a3f
00000020: 7f78 20bf 34d1 4b3d d906 22bf 4732 4e3f
00000030: d412 003f 4e93 92be a06e 6ebd 0856 59be
-0.36279976 -1.2349023 0.022080148 0.12169802 -0.5824936 -0.035358485 -0.6015593 0.9168694
-0.6268386 0.04976006 -0.632917 0.8054547 0.5002873 -0.2862801 -0.05821097 -0.21224225

model.blocks.0.net.7.running_var f4 [16]
00000000: a45a 0d3d 6033 a33e 63b9 d33d ab76 173e
00000010: 8e1b 8d3d 4e21 f93b 22ab e53c b04a 043e
00000020: 52e2 353e d1b9 9a3c 0098 d83d 3f8c 823d
00000030: 18c1 2d3d 2d5c dc3c 3e58 873b 6bf0 6a3d
0.03451027 0.31875134 0.10338094 0.14791362 0.06890021 0.007602847 0.028035704 0.12919116
0.17762116 0.018887432 0.10575867 0.06374406 0.042420477 0.026899422 0.0041303923 0.057358187

model.blocks.1.net.0.weight f4 [4, 16, 1, 1]
00000000: 7d59 a93d 7a3f 903f 67c4 21bf 8e44 ee3e
00000010: 2d43 0abf f3bf 453e 5212 593c 07ae 6cbe
00000020: 89c5 22bf 2c7c 833c 0f47 ec3d a788 f73e
00000030: cd74 813d b0cf 41be 5c8d 9d3d bcd2 193e
00000040: 7629 053f 2e41 a4be 4c85 40be 2887 823e
00000050: ecca d2be 9aef 52bd dd51 2ebe 52af d73e
00000060: 3bbf 02be 74a4 873d 5f9d 49be 0bd4 dd3e
00000070: 72f8 0dbe 4272 f3bd 5329 6b3e 98cd 453e
00000080: 8a50 833e 53d6 423f dc22 2e3d dd51 c73d
00000090: 9f1d ac3e 8dc8 b63d 4db4 1f3d 8b7a ecbe
000000a0: 83d6 593e 49ce 433c e176 d23e cd80 5a3d
000000b0: 9a7d 823c df59 74be c6b9 38be 1a04 3e3d
000000c0: bf65 593d a3b8 4dbf 4bfd 83be b6c0 c9bd
000000d0: f3db 9b3e 9880 3ebe 4ca4 1ebd 87ba 553f
000000e0: 7839 7f3e 1ab0 05bd 0059 2cbf ab9d 1fbf
000000f0: 6660 c73e 1115 f33e ca48 fc3d 39e7 14bf
0.08269022 1.1269372 -0.6319031 0.46536678 -0.5400875 0.19311504 0.013248997 -0.23113261
-0.63582665 0.01605042 0.11536991 0.48346445 0.06321106 -0.18926883 0.07692978 0.15021795
0.5201639 -0.32080978 -0.18800849 0.2549374 -0.41170442 -0.051498033 -0.17023416 0.42125946
-0.12768261 0.06623164 -0.19688939 0.43325838 -0.13864306 -0.11887027 0.22964983 0.19316709
0.25647384 0.7610828 0.042513713 0.09732411 0.3361635 0.08924971 0.038990308 -0.46187243
0.21273236 0.011951038 0.41106322 0.05334549 0.015929032 -0.23862408 -0.18039617 0.04639063
0.05307555 -0.8035986 -0.25779185 -0.0985121 0.30441245 -0.18603742 -0.038730904 0.83487743
0.24924266 -0.032638647 -0.67323303 -0.6234996 0.38940734 0.4747701 0.12318571 -0.5816532

model.blocks.1.net.1.weight f4 [4]
00000000: be70 6e3f 9b62 263f b815 2c3f 8edb 4a3f
0.9314078 0.6499421 0.6722064 0.79241264

model.blocks.1.net.1.bias f4 [4]
00000000: c6b5 a83c 1185 253e b882 c73e 2aea 063f
0.020594489 0.16164042 0.38966918 0.52701056

model.blocks.1.net.1.running_mean f4 [4]
00000000: 7b01 913f e69c e3be 2ffd 0640 ac24 bdbf
1.1328577 -0.44455642 2.109203 -1.4776816

model.blocks.1.net.1.running_var f4 [4]
00000000: 4f1f 3b40 a0ba 823f f950 363f 83f5 0840
2.923786 1.0213203 0.71217304 2.1399848

model.blocks.1.net.3.weight f4 [4, 4, 3, 3]
00000000: 3f43 a63e 4a6e 2cbf 2d9c 8a3e d15a d2be
00000010: 47a6 293d e282 1e3f 959e d33d f164 523f
00000020: 757a 143e 5efd 86be be13 41be 07bc f03e
00000030: c2bd c4bd 2aac c53d 5873 943d d512 82be
00000040: 5016 a33e 4f9c 12be 9ded fd3d 0300 0ebe
00000050: d974 af3d 5933 aabe ada3 29be 7253 0a3e
00000060: f554 2fbd 4329 b63e fddc cbbb 14a4 72be
00000070: 6826 073f f7d4 393e 2f56 f33e 87ac a53e
00000080: ff94 32bf 87f1 b83e bcd2 58bf 9362 8e3e
00000090: f2d7 3a3e c826 89be 7beb 83be 5f56 25be
000000a0: 41b3 36be cb98 2e3e bf61 84be beaa 3ebe
000000b0: c013 9fbe bf9e 953e c241 8bbe 86ab 9cbe
000000c0: 2bf5 b63d a4cf 033e f7e2 ec3c badd 09bf
000000d0: ec1b 2fbf dd3d 84be 4223 68bd 09f9 413d
000000e0: ade7 0b3e 1f4f 9bbd cabb a7be 6fa8 b5bd
000000f0: 75de 673e e3c1 2f3e 5237 1a3d 903d f43d
00000100: 55a1 f53d c78e c93d 544f 363e 8154 1b3e
00000110: 2f1f debd 9b04 ccbd 9743 9cbe 9795 3f3e
00000120: 65d2 a63d acfe 193f 68ab 9dbe 77fd 2d3f
00000130: 48d0 e8be 8b79 47be 0f99 7abd 4c85 b3be
00000140: b6ea ba3e 4795 c6bc e363 cbbc 4256 46bc
00000150: 5453 c43b 586f f2bd 90a4 18be 4a55 f73c
00000160: 52a8 853c 442f 1f3e e911 3cbe 30d5 953e
00000170: 1774 2c3e 5f4e 8e3e 8e15 5cbe 1e8f 60be
00000180: 20ae 36be 6a97 5dbe 2dc8 fa3d f30a 3ebe
00000190: 3121 13bf e472 d53e 3c35 39bf ba14 263f
000001a0: 9b64 d63e f054 133f 6089 233f a737 f1be
000001b0: 7586 f9bd 12ac fbbd 2392 84be 0002 9e3c
000001c0: d0e9 93be 389a e03c aa26 ae3e 3c91 ef3e
000001d0: 38ae d73e 4e97 6b3e 414d dabe eacc 0dbe
000001e0: a04b 8b3e 43e9 3e3e 71bd 3bbe 0e24 86be
000001f0: 095d c43e 7cb7 f23e bcc5 703e 6cd8 263f
00000200: 45fb a43e 7bfb f6be a795 5fbf 1523 e0bd
00000210: 46de 0d3f a248 293f cb29 cabc d0b3 093e
00000220: fbf2 59be 42ab 9b3e 7b82 3f3d 28f8 f73e
00000230: a863 58be 22be bdbe 2ce2 16bf 9a5b 0bbc
0.3247318 -0.6735579 0.27072278 -0.41084912 0.04141834 0.6191846 0.103329815 0.82185274
0.14499839 -0.2636518 -0.18855187 0.47018453 -0.09606506 0.09651978 0.072485626 -0.25404993
0.3185296 -0.1431744 0.12398837 -0.13867192 0.08567209 -0.332423 -0.16566344 0.13508394
-0.04280563 0.35578355 -0.006221412 -0.23695403 0.5279298 0.18147646 0.4752669 0.3235819
-0.697586 0.3612177 -0.84696555 0.2780958 0.18246439 -0.267874 -0.25765595 -0.16146229
-0.17841817 0.17050473 -0.25855824 -0.1861982 -0.31069756 0.29222676 -0.27198607 -0.30599612
0.08933481 0.12872177 0.028916819 -0.5385395 -0.6840198 -0.25828448 -0.05667425 0.04735664
0.13662596 -0.075834505 -0.3276046 -0.08870017 0.22643454 0.17163806 0.037650414 0.119258046
0.11993662 0.09841686 0.17803699 0.15168954 -0.108457915 -0.09961816 -0.30520317 0.18709408
0.08145598 0.60154223 -0.30794835 0.6796488 -0.45471406 -0.19479959 -0.061181124 -0.35062635
0.36507195 -0.024241103 -0.024827903 -0.012105526 0.005991379 -0.118376434 -0.14906526 0.030192036
0.016315613 0.15545374 -0.18366207 0.29264212 0.1684116 0.27794167 -0.21492597 -0.21929595
-0.17839861 -0.21639791 0.12245212 -0.18558864 -0.5747252 0.41689217 -0.72346854 0.64875376
0.4187363 0.5755148 0.6388149 -0.47112772 -0.12183849 -0.12288679 -0.25892743 0.019288063
-0.28889322 0.027417287 0.34013873 0.46790493 0.42125106 0.23006937 -0.42637065 -0.138477
0.27206135 0.1864367 -0.18333985 -0.26199383 0.3835223 0.47405612 0.2351293 0.65173984
0.32222953 -0.4823874 -0.87337726 -0.10944191 0.5541729 0.66126454 -0.024678132 0.134475
-0.21284096 0.30404097 0.046755295 0.48431516 -0.21131766 -0.37059122 -0.5893886 -0.008505726

model.blocks.1.net.4.weight f4 [4]
00000000: b108 6a3f 145a ee3e 63b3 633f 4e52 493f
0.9141951 0.465531 0.889456 0.7864121

model.blocks.1.net.4.bias f4 [4]
00000000: 08f1 663e 6e48 6a3f de99 083e 6183 303f
0.22552884 0.9151677 0.13339946 0.6895047

model.blocks.1.net.4.running_mean f4 [4]
00000000: 7815 213f d674 24bf 8ae7 e83e e58a 033f
0.62923384 -0.6424078 0.4548915 0.5138381

model.blocks.1.net.4.running_var f4 [4]
00000000: 756d 1c40 9308 683f ff23 1b40 87d9 0c40
2.4441807 0.90638083 2.424072 2.2007768

model.blocks.1.net.6.weight f4 [16, 4, 1, 1]
00000000: 64a4 c4bd 0f37 df3d d749 fe3d 4af4 47be
00000010: 9edf 0ebe da61 06bd d52d 063e 660f 97be
00000020: 2463 20be 0ba6 1fbe 3a95 fdbd 46e2 6bbf
00000030: ad4d 02bf 7ead 313e 3366 bfbe d0a3 e8b8
00000040: 80a5 16bd 3644 043d 4a15 b63d 5875 e03e
00000050: ce0d a03c 08ff d6bc da2b ebbd 778e 23bc
00000060: 8c72 f23c 12d2 a53e 978e 53be e6ce 9c3e
00000070: 48e9 b5be d19d 233f 6e66 9abe 8b51 5ebe
00000080: b558 963e ab67 883d 0cfb 71be c1af 353c
00000090: 63f2 733f b1e3 773e e15d 5e3f c5f7 d4bd
000000a0: 0b8e 21be 3c43 a7be 87a1 d03e cf01 4abf
000000b0: 00ee 4a3e b9ed 5dbf 5040 b3bc 17a9 993e
000000c0: 090f 07bf 6668 d5bd f16e 24bf 15cc d73d
000000d0: 9645 88be ec35 22be f95e 993e b4a8 abbc
000000e0: 51a3 0a3d 19ee af3c abeb 143d b0b2 0dbe
000000f0: 83d3 0abc b474 bcbe e3b2 e23d 766c 0f3f
-0.096016675 0.108991735 0.124164276 -0.19526783 -0.1395249 -0.032808162 0.13103421 -0.29503936
-0.15662819 -0.15590684 -0.12381978 -0.9214214 -0.50899774 0.17351338 -0.3738266 -0.000110931345
-0.036778927 0.032291614 0.08890779 0.43839526 0.019537833 -0.026244655 -0.114829734 -0.009982697
0.029595636 0.32386833 -0.20659862 0.306266 -0.35529542 0.63912684 -0.30156273 -0.21710794
0.29364553 0.06660398 -0.23630923 0.011089266 0.9529173 0.24207951 0.86862 -0.10398821
-0.15776841 -0.32668483 0.40748236 -0.7890901 0.19817352 -0.8669086 -0.021881253 0.30011818
-0.52757317 -0.10420303 -0.64231783 0.105369724 -0.2661559 -0.15840882 0.2995527 -0.020954467
0.033847157 0.021475838 0.036357563 -0.13837695 -0.00847328 -0.36807787 0.11069276 0.56024873

model.blocks.1.net.7.weight f4 [16]
00000000: 8751 9fbd 1f5c 37bd 7c7f 0c3f 9dcc 913e
00000010: 12b5 0b3e 50bf e8bc 9e62 8e3d 6acb c53e
00000020: 1281 693b 36bb 203f 8dd4 103f 80df d03e
00000030: c563 873e 97cb d33c 2880 1e3c 0fcf 643e
-0.07779222 -0.044765588 0.54882026 0.2847642 0.13643292 -0.028411537 0.069524035 0.38631755
0.003562991 0.6278566 0.56574327 0.40795517 0.26443306 0.025853915 0.0096741095 0.22344612

model.blocks.1.net.7.bias f4 [16]
00000000: 87bd be3c 871b d3bd e3b1 993e e135 a5be
00000010: 881e 9bbe 974c abbe 75fb d0bc a9f2 02bd
00000020: 3fe8 72bc e0c6 193f 8643 9f3d 1dd1 22be
00000030: 99b6 ad3d f292 eebc 3069 a5be d95c b13d
0.023283733 -0.10307985 0.3001853 -0.3226767 -0.3029673 -0.3345687 -0.025510529 -0.0319697
-0.01482588 0.60069084 0.07776551 -0.15900083 0.08482093 -0.029122803 -0.32306814 0.086602874

model.blocks.1.net.7.running_mean f4 [16]
00000000: e6c3 27bd 03eb 87be c37c 75bf dcbd 51be
00000010: 6870 c23e 6296 89bd a0a7 ef3e 63c4 233e
00000020: 9b7d e03d 79ac 653f 40de 50bf d9a8 00bf
00000030: 5315 fdbe da94 2abe cb56 65bd c7f7 f33d
-0.040958308 -0.26546487 -0.95893496 -0.20482582 0.37976384 -0.06718136 0.46807575 0.15992884
0.10961457 0.897163 -0.81589127 -0.5025764 -0.49430332 -0.16658345 -0.055990975 0.11912494

model.blocks.1.net.7.running_var f4 [16]
00000000: 0e6d 2d3d c417 a33d 7144 e13e f8ca 0d3e
00000010: 2455 a23d 6d93 ad3b e2eb b53d 4cb1 5c3e
00000020: c5e0 9e3d e46a e93e 199f ef3e 344b 6e3e
00000030: 0164 3c3e 0529 bd3d ae22 023c 87f9 313e
0.04234033 0.07963517 0.4399753 0.13846958 0.079263955 0.0052971155 0.08882882 0.21552008
0.07757715 0.45589364 0.4680107 0.23270875 0.18397523 0.092363395 0.007942839 0.17380343

model.blocks.2.net.0.weight f4 [4, 16, 1, 1]
00000000: 495d 9b3d 9306 babf d7f7 a5be f8c0 ac3e
00000010: 741a 01be c2be dabb 2adf 6c3e 8542 d63e
00000020: 0251 f73e b159 b23d 1a89 9cbc ae80 223d
00000030: 9ede 87be 5022 7a3e b55c 5f3d 6923 a63e
00000040: 374a 5e3d 8371 6abe d478 07bc e29d a5bd
00000050: 5415 60bd 7023 343d a961 223d 185c 15be
00000060: f19d e6bf ce62 a5be 8ef6 0abe 39f0 003d
00000070: 135c be3d c489 c9bc 063d 0dbb f992 f2be
00000080: 8971 fc3d 210e 36bf 0238 5bbe 55c1 0cbf
00000090: e356 5f3e 563f eabc c9a4 d63d a746 913d
000000a0: 2255 12be 814e d43c d6da 24bf 5d4c 893d
000000b0: 1eae 703e 7ef0 cb3e 6cda e73d cc0b 6ebd
000000c0: 8f70 2b3e 0f5b aebe 1430 a53e 4619 71be
000000d0: 2576 6b3e 3297 a9bd 3769 60be 6354 fabe
000000e0: 562f 793e 35a2 68be efdf 593f 2f6f 97be
000000f0: a93f e4bd cdc3 cabe 0479 a73c d97c b9be
0.07586152 -1.4533256 -0.3241565 0.33740973 -0.12607747 -0.006675572 0.23132005 0.41847625
0.48303992 0.087085135 -0.019108344 0.0396735 -0.2653703 0.24427152 0.05453177 0.3244889
0.054269996 -0.22894864 -0.008268554 -0.080867544 -0.05470784 0.04397911 0.039643917 -0.14585912
-1.801695 -0.32301944 -0.13570616 0.031479094 0.092949055 -0.024601825 -0.0021551265 -0.47377756
0.123263426 -0.7111531 -0.21408084 -0.549825 0.21810488 -0.028594654 0.10480649 0.07093554
-0.14290288 0.02591634 -0.6439642 0.06704018 0.2350392 0.39831918 0.113209575 -0.05811672
0.16742156 -0.34053847 0.32263243 -0.23544797 0.22994287 -0.08280791 -0.21915136 -0.48892507
0.24334463 -0.22718127 0.8510732 -0.29577014 -0.11144955 -0.3960251 0.020443447 -0.36228064

model.blocks.2.net.1.weight f4 [4]
00000000: f551 2a3f 86c5 1b3f 2639 133f 60e0 0a3f
0.66531307 0.6084827 0.57509077 0.5424862

model.blocks.2.net.1.bias f4 [4]
00000000: 4106 be3f 4a25 ee3e 9b3d 913e 7f67 643f
1.4845659 0.46512824 0.28367314 0.8922042

model.blocks.2.net.1.running_mean f4 [4]
00000000: b04d 4abf 2681 93c0 f1f5 9dbf f90b a9bf
-0.7902479 -4.609515 -1.234068 -1.3206779

model.blocks.2.net.1.running_var f4 [4]
00000000: 4f9c 4640 ca5f 7f40 4187 5c3f 017e 8b3f
3.1032903 3.9902215 0.8614388 1.0897828

model.blocks.2.net.3.weight f4 [4, 4, 3, 3]
00000000: 2d43 933e 25f1 563f 4d33 093f d3c0 a6be
00000010: 2752 dcbe 25d5 42bd 736c f9bc 9208 c2be
00000020: 4706 d5be a178 da3d 1ce4 8dbc 7072 ff3d
00000030: 0241 98be 549a 18bf b204 74be 4296 d63e
00000040: 45ec a73e 3627 ad3e 23ac 9b3c c34b 923e
00000050: 1ce8 243e 09c9 bdbe bd7a 1fbf 8511 edbe
00000060: 7ee8 8f3d 2e23 c13e f8d4 e13e 2b35 03bf
00000070: 45e9 36bf 981b 67bf dc00 d73e 54c7 b8bc
00000080: d7c5 183e 373a 063b eb15 3d3f 8e5a 453f
00000090: a3a4 c53d b9f7 26be fdef 853e f54f 64be
000000a0: fc4c ebbe d1f0 153d c346 ddbe 0a7b 02bf
000000b0: 87d2 683c f0f2 e1bd 0db9 c13c 86fb 1e3d
000000c0: 4c1e 6d3e af17 b53e c116 533f 9940 193f
000000d0: 9098 9f3e 903b 0a3f c83a 8b3e 1ef0 46be
000000e0: 16f3 bfbe c3c0 283e 6aa9 0cbe 1bf9 82be
000000f0: 2a98 913e 747b 12bd 5c20 5d3d dd96 5c3d
00000100: 9ea8 64bd d752 1cbe 6407 2f3d 81f0 8cbe
00000110: 9707 35be 4cdb 4f3d 0a10 6abe 171e 123e
00000120: e428 41bf c052 9f3e 49cd 1c3f 6f17 ac3d
00000130: 2390 c3be 7ca0 c03f b6db ed3e 8b14 19bf
00000140: 9a0d d3be 57b7 c7be cc7c 26be 78be 23be
00000150: 1b51 573e 3836 d23e 874c dfbe cf87 7bbc
00000160: c6c4 e93e 530e 1c3e 0813 f7be 7cd8 45be
00000170: 9f2f 7a3e 78cb dabd 51a0 9cbd 97ab 8e3d
00000180: c1fd e83e 446d 673e 5393 d0be e148 d43e
00000190: 0d2d e83e 1a94 2bbe 1bca 23bd 6ad8 ce3e
000001a0: 88f1 14bf b483 823d 18d6 afbe 03dc 9bbd
000001b0: 70ab 6e3e 2f9f 3cbe fa95 16bd 039f 9e3d
000001c0: 6929 92bf 7cb5 953f 78f3 87be 36f4 a1bd
000001d0: 7ba4 d23e 1491 93be 184b 063f 7614 07bd
000001e0: 1935 b13e e1a8 563f d007 34bf 52bc 7abe
000001f0: 835e 6abd 4cbf 3bbf 293b d33d bd9d c63c
00000200: 923e 8fbd cd0a 053f f1b3 0bbf 9e5f 69bd
00000210: 90a2 103e ebe0 84be e2a5 5f3e dac6 4d3e
00000220: be23 0fbf ae94 a83e 3918 6ebe 3281 bebe
00000230: bed5 243f a74e 70be 40a6 f33d 591c cd3e
0.2876219 0.8396171 0.53593904 -0.32568988 -0.43031427 -0.04756655 -0.03044722 -0.37897164
-0.41606352 0.106675394 -0.017320685 0.12472999 -0.29737097 -0.59610486 -0.23829916 0.41911513
0.32797447 0.33818978 0.01900298 0.28573427 0.16104168 -0.3706744 -0.6229666 -0.4630243
0.07026766 0.37722152 0.44107795 -0.51253 -0.7144969 -0.9027648 0.41992843 -0.022555985
0.1491922 0.0020481476 0.7386157 0.770913 0.096505426 -0.16305436 0.2615966 -0.22296126
-0.45957172 0.036606614 -0.4321805 -0.5096899 0.01421035 -0.11032665 0.02364781 0.03881409
0.23156089 0.35369632 0.82456595 0.59864193 0.31171083 0.53997135 0.27193284 -0.19427535
-0.37490147 0.16479783 -0.13736501 -0.25580677 0.28436404 -0.035762265 0.05398594 0.053854812
-0.05582487 -0.15265976 0.042731658 -0.2752724 -0.17678677 0.050746247 -0.22857681 0.14269291
-0.7545302 0.3111782 0.6125074 0.08402907 -0.38195905 1.5048976 0.4645669 -0.5979697
-0.41221315 -0.39007065 -0.16258544 -0.15990627 0.21027033 0.4105699 -0.43613073 -0.0153522035
0.4565794 0.1523984 -0.48256707 -0.19320863 0.24432229 -0.1068334 -0.076477654 0.06966322
0.455061 0.22600275 -0.407374 0.41461852 0.4534687 -0.16755715 -0.039987665 0.40399486
-0.5818105 0.06372777 -0.34343028 -0.07610323 0.23307586 -0.18420099 -0.036764123 0.07745173
-1.1418887 1.169601 -0.2655294 -0.07907908 0.41141114 -0.28821623 0.52458334 -0.032978497
0.34610823 0.8385144 -0.7032442 -0.24485901 -0.05721904 -0.7333877 0.10314018 0.024245137
-0.06994356 0.51969606 -0.54571444 -0.056975953 0.14124513 -0.2595285 0.21840623 0.20095387
-0.55913913 0.32925934 -0.23251428 -0.37207943 0.64388645 -0.23467503 0.11896944 0.4006069

model.blocks.2.net.4.weight f4 [4]
00000000: cdfb 603f adb3 1c3f d751 153f f9f5 603f
0.8788422 0.61211663 0.58328 0.87875324

model.blocks.2.net.4.bias f4 [4]
00000000: b06a 983e e475 3b3d 1416 9e3f c93e 213f
0.29768896 0.045766726 1.2350488 0.6298643

model.blocks.2.net.4.running_mean f4 [4]
00000000: fc59 88bd fe9a 92bf 7c1c 9f3f bf5a 913e
-0.06657788 -1.145355 1.2430568 0.28389546

model.blocks.2.net.4.running_var f4 [4]
00000000: b011 8940 fcba 0e40 732b 3340 c517 6840
4.283409 2.2301626 2.799527 3.6264508

model.blocks.2.net.6.weight f4 [16, 4, 1, 1]
00000000: cfc6 df3e 2e7c 71bd 71b2 eabd f7b2 e1bd
00000010: 1ead 92be e208 043e 98fb 893f e061 9d3e
00000020: fd39 8f3f 8222 bc3d 1908 323f 6b80 99bd
00000030: 09f5 98be 7d88 f53d f98a 263e 51c1 1fbe
00000040: 68eb ba3e 6e47 a839 b33f 80be 0ec8 f8bd
00000050: 37d9 f2bd 86f1 8a3e b28e b4be 7186 a43f
00000060: 975f 29be 5732 923d ae15 9dbe 2c8c 103d
00000070: a231 a0bd 9545 dfbd 87d9 1bbf 7608 77bf
00000080: 3380 7dbe 9c96 efbc fa08 13bd 3b43 f63e
00000090: 44b2 30be 27a9 2d3d c226 c73e c407 2abf
000000a0: fe03 693f a8fa 173d b1ba 35bf 75e9 a63d
000000b0: ad7f c83d 8cd0 e73d f0b3 a23e 92e2 08be
000000c0: a3dc 23be e21c 40be cf74 93be 057f 433e
000000d0: 9dc0 ba3d 7c54 763d a1b8 ddbe a078 d43c
000000e0: 9a77 23be aaa4 a93f 3673 8cbb ccd3 13be
000000f0: e129 2b3e 89db d23d 3a2e 6e3e 83a1 b4bc
0.43706366 -0.058956318 -0.11459816 -0.11020463 -0.28647703 0.12894014 1.0779905 0.30738735
1.1189572 0.09186269 0.69543606 -0.07495197 -0.29874447 0.11988924 0.16263951 -0.15601088
0.36507726 0.00032096676 -0.250486 -0.121475324 -0.11857837 0.27137393 -0.35265118 1.2853528
-0.16540371 0.07138508 -0.30680603 0.03528993 -0.07821967 -0.109019436 -0.60878795 -0.96497285
-0.24755935 -0.02924662 -0.035897233 0.48098168 -0.17255503 0.042397644 0.38896757 -0.664181
0.91021717 0.03710428 -0.70987993 0.08149997 0.09789977 0.11319074 0.31777906 -0.1336768
-0.16002135 -0.18761018 -0.28800055 0.19091423 0.09118769 0.060139164 -0.43304923 0.025936425
-0.15963593 1.3253376 -0.004286195 -0.14436263 0.16715194 0.10295779 0.23259822 -0.022049671

model.blocks.2.net.7.weight f4 [16]
00000000: 30af 493e dac0 5a3f 5e2f 7d3f a606 373e
00000010: 4c73 973d d9d1 7b3f 3021 a6bc 71c4 7d3f
00000020: 9cc1 4e3e 8278 9b3e e47e 473f 18b0 6e3c
00000030: b05f cd3d b857 223d 20ab 343f eaa6 f5bb
0.19695735 0.8545052 0.989004 0.1787363 0.07395038 0.9836708 -0.020279497 0.9912787
0.20191044 0.30365378 0.77927995 0.014568351 0.100280166 0.039634436 0.70573616 -0.0074967043

model.blocks.2.net.7.bias f4 [16]
00000000: 16c6 7dbc c209 99bf a974 babe c7d1 3cbe
00000010: f5bc eebe c240 013e 42c2 9cbe f31b 49bd
00000020: 9f01 c3bf 5863 15bd 9117 8ebe d479 22bf
00000030: b002 9ebe f7c4 ecbe f140 823e 38a6 37bf
-0.015489122 -1.1956103 -0.3641713 -0.18439399 -0.46628538 0.1262236 -0.30616957 -0.04909892
-1.523487 -0.036471695 -0.27752355 -0.63467145 -0.30861425 -0.46244022 0.2544017 -0.71738005

model.blocks.2.net.7.running_mean f4 [16]
00000000: 104c aebc 52d6 ba3f 6f1d b23f 1cda 0ebd
00000010: 4809 61be 3adb 093f d8ce d6be d04f c6bf
00000020: 608f 3e3e a8d3 bdbd 390d b6be 8156 be3e
00000030: b6c0 aebe bd4e eabe 2b31 0f3e fe99 c33e
-0.021276504 1.4596655 1.3915232 -0.034875974 -0.21976197 0.5385014 -0.41954684 -1.5493107
0.1860938 -0.09268886 -0.35556963 0.37175372 -0.34131402 -0.45763198 0.139836 0.38203424

model.blocks.2.net.7.running_var f4 [16]
00000000: 8d24 8b3d 8f43 e93e fd70 103f d61a 543d
00000010: 3a7b 8c3d 893b 3e3f 49f1 173d 130a 153f
00000020: 8939 ce3d 2445 793e f30f ee3e dedf 1f3d
00000030: 2682 3b3d 8ea0 823d d8e6 6a3e d15e e83c
0.06794081 0.45559356 0.56422406 0.051783405 0.06859441 0.74309593 0.03709534 0.582185
0.10069568 0.24342781 0.46496543 0.039031856 0.045778416 0.063782796 0.22939622 0.028365524

model.blocks.3.net.0.weight f4 [8, 16, 1, 1]
00000000: da74 c83d 4a60 91bf 1555 1cbf 3620 f13e
00000010: 557b 6e3e ca1d 293f c212 243c c7dc 4d3f
00000020: 3a22 9b3d 5e25 0dbf dd82 01bf 3fba 943e
00000030: a53d b43d dfc2 213e c014 863d 7f12 093e
00000040: 24ad 0d3e 3576 303f 9cfc 263e 3daa 92be
00000050: 9ccf ed3d d126 0b3e bbc0 aebd f234 59be
00000060: 2d42 27bf bbf6 9f3d ad87 07bf 318c 91be
00000070: bc00 20be 6616 b3bd 3e03 e13e 4e2a 3bbe
00000080: d08c b93c cc06 563e f9bb 963e 024e ed3e
00000090: 0bf5 1ebf ded6 503c d813 c6bd 0791 23be
000000a0: 3cf5 133f 11c7 2d3e 589f e1be 984d 9f3c
000000b0: 3110 873d c6ae f8ba 5181 ccbe 867e 8f3e
000000c0: 9989 6a3d 3d13 e93e 5dd1 b23e f382 aebc
000000d0: a106 003f 04f5 e5bd 20ed 09be 0839 37bf
000000e0: a43c 193d 430f 96be 6805 163e 8132 35be
000000f0: 3e51 0bbd d676 8d3d 8337 15bd ea51 c0bd
00000100: 61a7 65bd 70cb d63e 4c4c 903f 6c48 87bd
00000110: db35 c7bd e2fe 36be f6e6 44be 2e5b 643e
00000120: cdba 52be 5df3 3a3e 51e0 bc3e fe1b d7bd
00000130: 1e28 32bd 963a 3dbd 4b38 88bd 05fe 37be
00000140: 038b 1b3b b098 ba3d 6ded 21bf bdba 013d
00000150: 209d f6bd 470d 8f3e 62ce 0a3e fb39 e13d
00000160: 12c3 913e 8e9a d6bb bdbf 5bbe 3801 8d39
00000170: 002c 7f3d 650e db3d b73e 603f ec83 c03d
00000180: 87d0 aebc 7127 ff3e c578 b1be 1c23 ba3e
00000190: 0fbc 67bc 7f1d 803f 2236 8cbd 8d0b 32bf
000001a0: 955f 5fbe ee11 56be f9f2 a2be 7ad1 88be
000001b0: b989 9ebc f502 243d b79d 16be 20a5 1dbe
000001c0: 3b15 913e 9028 60bf adcf 5dbd 3dfd 9bbe
000001d0: 15c1 2d3e f5ab 9abe ad40 28be f2f6 8b3f
000001e0: b551 063d 42a8 aa3e 8e51 c23e 8326 a1bd
000001f0: 0af8 bfbb cdae f03c 7c00 443d 6467 b9bc
0.09787913 -1.135751 -0.61067325 0.47094887 0.23289235 0.6606108 0.010014238 0.80415004
0.075748876 -0.5513514 -0.50590307 0.29048344 0.0880082 0.15796994 0.065469265 0.13385962
0.13835579 0.6893037 0.163073 -0.28645507 0.11611864 0.13589026 -0.08532854 -0.21211603
-0.6533535 0.07810732 -0.529414 -0.2842727 -0.1562528 -0.087445065 0.43947786 -0.18277857
0.022650152 0.2090103 0.29440287 0.46348578 -0.62092656 0.012746541 -0.09671754 -0.15973292
0.5779607 0.16970469 -0.44066882 0.01944618 0.06594885 -0.0018972985 -0.3994241 0.28026217
0.05726013 0.4552249 0.34925357 -0.021302676 0.50010115 -0.11228374 -0.13469362 -0.715714
0.037411347 -0.2930852 0.146505 -0.17695047 -0.034013025 0.06907432 -0.036429893 -0.09390624
-0.056067828 0.41952085 1.1273284 -0.0660561 -0.09727069 -0.17870668 -0.1922873 0.22300407
-0.20579071 0.18256898 0.3688989 -0.10503386 -0.04349529 -0.04619845 -0.06651362 -0.17967995
0.002373398 0.09111154 -0.6325291 0.031672228 -0.12041688 0.27939817 0.13555291 0.10997387
0.2846914 -0.006549186 -0.21459861 0.00026894524 0.06229782 0.10696105 0.87595695 0.09400162
-0.021339668 0.4983478 -0.34662452 0.3635491 -0.014143958 1.0009001 -0.068462625 -0.69548875
-0.21813805 -0.20905277 -0.31825998 -0.26722318 -0.01935278 0.040041883 -0.14708601 -0.15395021
0.2833651 -0.87561893 -0.054153133 -0.30466643 0.16968186 -0.30209318 -0.16430922 1.0934737
0.032792766 0.33331496 0.37952846 -0.07868674 -0.005858426 0.029380227 0.047852024 -0.022632308

model.blocks.3.net.1.weight f4 [8]
00000000: 2c25 723f ee42 0c3f 82d7 ea3e 2bf8 f53e
00000010: 1637 133f f8eb ac3e d5af 433f c337 393f
0.9458797 0.54789627 0.45867544 0.480409 0.5750593 0.3377378 0.76440173 0.7235071

model.blocks.3.net.1.bias f4 [8]
00000000: fa4b 3abe 151d 543f 29e7 433f 8de3 503f
00000010: 5907 b43e 7e72 df3e 11de e6bd 6829 483f
-0.18193045 0.82856876 0.765246 0.81597215 0.35161856 0.43642038 -0.112728246 0.7818818

model.blocks.3.net.1.running_mean f4 [8]
00000000: 3637 80be 1289 87be 1eba a33e 9dc0 0fbd
00000010: 4de8 393f 9f5f fb3e 1491 ecbe c30c 8a3e
-0.25042123 -0.26471764 0.31977934 -0.0350958 0.7262009 0.4909639 -0.46204436 0.2696286

model.blocks.3.net.1.running_var f4 [8]
00000000: 530e 3a40 b569 dc3f d85e 773f 220c ad3f
00000010: 3a86 df3f 7c70 443f f21f 0440 e151 2c40
2.9071243 1.7219759 0.96629095 1.3519328 1.7462838 0.7673414 2.0644498 2.6924975

model.blocks.3.net.3.weight f4 [8, 8, 3, 3]
00000000: 7231 9ebe 00d5 a5bd cf23 0f3d 2c46 78be
00000010: 69f4 02be 91f1 2a3e 41fc 29be f2fe 393e
00000020: 59f8 a33c 463f 853e 7bb2 7cbe c125 90bd
00000030: fa91 cf3e b803 adbe ba89 a4bd 59bb 313e
00000040: 8a28 75be 7073 04be 29c4 46be ce43 58bd
00000050: b6e4 c43d d19d 34bd 84c5 2e3e 9d5a efbc
00000060: 4e0f 0b3d 9316 743e 4ab7 b13c 08b0 b13d
00000070: c27b d9bd 078a 52bd f3bf c13e 9c54 073e
00000080: 22c8 80be 99e9 3c3e 7819 2abe d6a2 97be
00000090: 50ab 523d d5cf 01be 1bd7 d13d bf9f a33c
000000a0: 95d8 48bd 21e1 553d 8802 c5bc 2f09 c23d
000000b0: 6e32 8b3d f2e8 553d 4577 ddbd a9a7 1dbd
000000c0: 220a 453e d8b7 77be c2d4 093e a84a b13d
000000d0: ab7c 15bd 76b4 0b3e 1242 903e daf6 c83e
000000e0: 01a7 2c3e 0757 163f 2d1c 24bc 0c03 b23c
000000f0: 822f c43e 310c 053f 6233 5c3e 2d19 adbe
00000100: 5f99 bebc e093 c73e 80b5 05bf 61f4 9cbd
00000110: f77c 153f 3ce7 7bbe 161a b43e 3489 f83e
00000120: 2c52 3fbd 4007 00bc 599c 413e 1b67 f8bc
00000130: 6255 dabd e7c5 243e d41f db3d 6a9f 01be
00000140: 5744 e73d ef1b 8c3e 4bfa 823e b4de 85be
00000150: 669f 313e 25f1 c03e d63f 2fbe 9244 f3bd
00000160: 0a77 223f 6453 8c3e 394e e0bd 3670 5fbd
00000170: 8140 403e e2b7 4cbe b3bf d0be 1562 ad3e
00000180: 6afa f8bd 5b4b 1bbe d843 d53e 92b9 eb3d
00000190: 228e 513e 25a9 78bd b440 23be 0216 b13e
000001a0: e654 213e cd8c bdbe e114 113e 7b0d a43e
000001b0: b2da 5f3d bf1b 4c3d 6778 f2bd 15de d7bd
000001c0: 962b c83d 518e 4c3d e270 c0bd b865 4d3e
000001d0: b21d 7d3e 53e8 07be a15c 39bc 8dcf 49be
000001e0: bd93 35bd cde7 16bd e546 a4bd 4af2 b7bd
000001f0: ac5d 953d f2fe 48bd fda4 a53d 476c 1f3d
00000200: 1935 523c 8333 8fbd d1d8 29bd 1ddc 353e
00000210: a6d5 93bd 6bb6 eb3d 8ce7 013e 0acd afbd
00000220: 431b cfbe 8247 47bd 4094 33bd fbbd 22bf
00000230: 961b bdbe 944f 4f3e 9a32 b5be 93e5 1abf
00000240: fdc5 d43e d6fc b0be 7123 ba3e 2784 f63e
00000250: 9200 913e 9210 6ebe ab52 adbe 65dd f13e
00000260: 9ddd 9b3e b41b 073e d1a6 083f ab4c 813d
00000270: 0e82 3dbe 2082 7bbe 0968 a23e 7385 9b3e
00000280: 7d90 dcbe 3440 a0bd a0bc 2cbe c3eb 44bd
00000290: aae8 1ebd 2703 2e3d 6553 8fbd 6d28 39bd
000002a0: c169 723e bb28 433e bbfe 543c d2fd 7ebe
000002b0: f577 063f 0470 8abd 6071 65be b496 08bf
000002c0: 610b ea3e 8fe0 b53e 8b81 8ebe 462c 54bd
000002d0: a1f7 883d e074 893e bf82 fa3c 32f1 793e
000002e0: 44d7 fbbe d118 9c3e d42c 573e 2102 14be
000002f0: 644f a33c 381d e83c 6402 0abe 2fb2 79be
00000300: 52e1 adbd 6821 b33e a9b8 6fbe a3f7 56be
00000310: 55b7 3ebc 7da5 97bc d914 3bbd 5ac2 643c
00000320: 6c80 acbc 8819 8dbb b347 9abc f990 063e
00000330: 873d 3dbc 7cf4 0fbe 3b27 37be dfb7 fb3c
00000340: 8fdc ccbe 431d e53c ecce 6e3e d60d 2e3e
00000350: e9f2 b2be 0c20 7cbe 8a29 f83d f684 333e
00000360: 3fb5 5b3e 3355 f2bd cacf d7bd b862 b33d
00000370: d8ff 94be 6a5a febd 0307 0b3d aa56 99bd
00000380: f4ca 3e3d b224 8ebe c096 af3e 8476 f9bd
00000390: 4d28 c0be 348d c63e b98f 73be ac1f f5bd
000003a0: 24cd b33e 2391 60be 61ee 10bd 7aa1 1abc
000003b0: 29ab f53d f3f4 23be f48a da3d 28b5 8ebc
000003c0: ab18 0dbe f1ab 573c c5e3 cc3c 96ce 97be
000003d0: 8938 d83d 17ec ecbd fd03 d1be 4a6f e43e
000003e0: 56f9 acbd 56b7 7cbe 62a4 153e 40cd 4bbe
000003f0: d372 e83c bee5 3abc fc9c 56bd 33e5 78bb
-0.308971 -0.08097267 0.03494626 -0.24245518 -0.12788548 0.16693713 -0.16600133 0.1816366
0.020015882 0.26024836 -0.2467746 -0.07038451 0.4054106 -0.337919 -0.08034082 0.17356624
-0.23941246 -0.12934661 -0.19410767 -0.05279904 0.09613936 -0.044095818 0.17067534 -0.029218012
0.033950143 0.23836736 0.021693844 0.086761534 -0.10619308 -0.051401164 0.37841758 0.1321587
-0.2515269 0.18448485 -0.16611278 -0.2961642 0.051432908 -0.12676938 0.10246106 0.019973634
-0.049034674 0.052216653 -0.024049059 0.09474408 0.06796728 0.052224107 -0.108137645 -0.03848997
0.19242147 -0.24191225 0.13460067 0.08656818 -0.036495846 0.13643059 0.28175408 0.39250833
0.16860582 0.58726543 -0.010016483 0.021729968 0.38317496 0.5197173 0.21503976 -0.3380827
-0.023266492 0.38980007 -0.5223007 -0.07663799 0.58393806 -0.24599928 0.35176152 0.48542178
-0.046709225 -0.007814229 0.18907298 -0.030322602 -0.10660817 0.16091119 0.1069943 -0.12658468
0.11292332 0.27365062 0.25581583 -0.26146472 0.17345962 0.3768398 -0.17114195 -0.11878313
0.6346289 0.27407372 -0.1095242 -0.054550372 0.18774606 -0.1999202 -0.40771255 0.33863893
-0.12157138 -0.15165465 0.41653323 0.11510004 0.20464376 -0.060708184 -0.15942651 0.34587103
0.15755042 -0.37021485 0.14168121 0.32041535 0.054651923 0.04983115 -0.11839371 -0.10540406
0.09773938 0.04994041 -0.09396531 0.20058334 0.24718359 -0.13272218 -0.011313588 -0.1970808
-0.044330347 -0.036842156 -0.080213346 -0.0898176 0.07293257 -0.04907126 0.0808811 0.03892162
0.012830042 -0.06992247 -0.041466538 0.17759748 -0.072184846 0.11509403 0.12685984 -0.0858403
-0.40450487 -0.04865218 -0.043842554 -0.6357114 -0.3693511 0.202452 -0.35390168 -0.6050655
0.41557303 -0.345679 0.36355165 0.481477 0.28320748 -0.23248509 -0.33852133 0.47239223
0.30442515 0.13194162 0.5337954 0.063134514 -0.18506643 -0.24561357 0.31719998 0.3037525
-0.43078986 -0.07824746 -0.1686883 -0.048076402 -0.038796104 0.042483475 -0.06998328 -0.04520457
0.23673154 0.19058506 0.013000186 -0.24901512 0.5252679 -0.067596465 -0.2240653 -0.53354955
0.45711806 0.35522887 -0.27833208 -0.051800035 0.066878565 0.2684698 0.030579923 0.24408415
-0.49187672 0.30487683 0.21013194 -0.14453937 0.019935317 0.028334245 -0.13477474 -0.24384378
-0.08490242 0.34986424 -0.23410286 -0.20992903 -0.011640389 -0.018511528 -0.04567418 0.013962353
-0.02105733 -0.004306022 -0.018833017 0.1314124 -0.011550314 -0.14058107 -0.17886059 0.030727325
-0.40012023 0.027968055 0.23321122 0.16997465 -0.3495095 -0.246216 0.12117298 0.1753119
0.21455859 -0.11832657 -0.105376795 0.087590635 -0.29101443 -0.12419589 0.033942234 -0.07487233
0.04658027 -0.2776237 0.342947 -0.12180808 -0.37530747 0.38779604 -0.23785295 -0.119689316
0.35117447 -0.21930365 -0.035383586 -0.009437913 0.11995537 -0.1601141 0.106710345 -0.017420366
-0.13778941 0.013163553 0.025010953 -0.296498 0.10557658 -0.11568468 -0.40823355 0.44616157
-0.084459946 -0.24679312 0.14613488 -0.19902515 0.028375065 -0.011407314 -0.052395806 -0.003797841

model.blocks.3.net.4.weight f4 [8]
00000000: b3ad 693f d384 823f 2410 813f 1c5e 8e3f
00000010: 606c 863f 324f 7e3f 6ccf 813f 4d3d 353f
0.9128067 1.0196785 1.0083051 1.112247 1.0501823 0.9933959 1.0141425 0.7079666

model.blocks.3.net.4.bias f4 [8]
00000000: 7be9 8d3e 3de9 163d 39cc e33d 3980 693d
00000010: 8078 5f3e 699b e43d d705 f83d f39a 0f3f
0.27717194 0.036843527 0.11122937 0.05700705 0.21823311 0.11162455 0.12110489 0.5609581

model.blocks.3.net.4.running_mean f4 [8]
00000000: 2e10 873f 408f 44be 8e1c af3e 387c 9dbe
00000010: d643 a33f 4e17 29be 5340 973f 26c1 b43e
1.0551813 -0.1919527 0.34201473 -0.30758834 1.2755077 -0.16512796 1.1816505 0.3530361

model.blocks.3.net.4.running_var f4 [8]
00000000: aa12 8240 0da1 8b40 82f0 2540 9560 8840
00000010: f705 4d40 0922 8640 231f 4840 95fc f93f
4.0647783 4.3634095 2.5928044 4.26179 3.203489 4.1916547 3.1269004 1.9530207
